…
I0429 22:12:23.796131 15324 net.cpp:313] The NetState phase (0) differed from the phase (1) specified by a rule in layer mnist
I0429 22:12:23.796161 15324 net.cpp:313] The NetState phase (0) differed from the phase (1) specified by a rule in layer accuracy
I0429 22:12:23.796283 15324 net.cpp:49] Initializing net from parameters: 
name: "LeNet"
state {
  phase: TRAIN
}
layer {
  name: "mnist"
  type: "Data"
  top: "data"
  top: "label"
  include {
    phase: TRAIN
  }
  transform_param {
    scale: 0.00390625
  }
  data_param {
    source: "examples/mnist/mnist_train_lmdb"
    batch_size: 64
    backend: LMDB
  }
}
layer {
  name: "conv1"
  type: "Convolution"
  bottom: "data"
  top: "conv1"
  param {
    lr_mult: 1
  }
  param {
    lr_mult: 2
  }
  convolution_param {
    num_output: 20
    kernel_size: 5
    stride: 1
    weight_filler {
      type: "xavier"
    }
    bias_filler {
      type: "constant"
    }
  }
}
layer {
  name: "pool1"
  type: "Pooling"
  bottom: "conv1"
  top: "pool1"
  pooling_param {
    pool: MAX
    kernel_size: 2
    stride: 2
  }
}
layer {
  name: "conv2"
  type: "Convolution"
  bottom: "pool1"
  top: "conv2"
  param {
    lr_mult: 1
  }
  param {
    lr_mult: 2
  }
  convolution_param {
    num_output: 50
    kernel_size: 5
    stride: 1
    weight_filler {
      type: "xavier"
    }
    bias_filler {
      type: "constant"
    }
  }
}
layer {
  name: "pool2"
  type: "Pooling"
  bottom: "conv2"
  top: "pool2"
  pooling_param {
    pool: MAX
    kernel_size: 2
    stride: 2
  }
}
layer {
  name: "ip1"
  type: "InnerProduct"
  bottom: "pool2"
  top: "ip1"
  param {
    lr_mult: 1
  }
  param {
    lr_mult: 2
  }
  inner_product_param {
    num_output: 500
    weight_filler {
      type: "xavier"
    }
    bias_filler {
      type: "constant"
    }
  }
}
layer {
  name: "relu1"
  type: "ReLU"
  bottom: "ip1"
  top: "ip1"
}
layer {
  name: "ip2"
  type: "InnerProduct"
  bottom: "ip1"
  top: "ip2"
  param {
    lr_mult: 1
  }
  param {
    lr_mult: 2
  }
  inner_product_param {
    num_output: 10
    weight_filler {
      type: "xavier"
    }
    bias_filler {
      type: "constant"
    }
  }
}
layer {
  name: "loss"
  type: "SoftmaxWithLoss"
  bottom: "ip2"
  bottom: "label"
  top: "loss"
}
I0429 22:12:23.796406 15324 layer_factory.hpp:77] Creating layer mnist
I0429 22:12:23.797158 15324 net.cpp:91] Creating Layer mnist
I0429 22:12:23.797225 15324 net.cpp:399] mnist -> data
I0429 22:12:23.797333 15324 net.cpp:399] mnist -> label
I0429 22:12:23.799386 15328 db_lmdb.cpp:35] Opened lmdb examples/mnist/mnist_train_lmdb
I0429 22:12:23.814034 15324 data_layer.cpp:41] output data size: 64,1,28,28
I0429 22:12:23.815744 15324 net.cpp:141] Setting up mnist
I0429 22:12:23.815779 15324 net.cpp:148] Top shape: 64 1 28 28 (50176)
I0429 22:12:23.815788 15324 net.cpp:148] Top shape: 64 (64)
I0429 22:12:23.815793 15324 net.cpp:156] Memory required for data: 200960
I0429 22:12:23.815807 15324 layer_factory.hpp:77] Creating layer conv1
I0429 22:12:23.815850 15324 net.cpp:91] Creating Layer conv1
I0429 22:12:23.815860 15324 net.cpp:425] conv1 <- data
I0429 22:12:23.815878 15324 net.cpp:399] conv1 -> conv1
I0429 22:12:24.035228 15324 net.cpp:141] Setting up conv1
I0429 22:12:24.035284 15324 net.cpp:148] Top shape: 64 20 24 24 (737280)
I0429 22:12:24.035300 15324 net.cpp:156] Memory required for data: 3150080
I0429 22:12:24.035338 15324 layer_factory.hpp:77] Creating layer pool1
I0429 22:12:24.035375 15324 net.cpp:91] Creating Layer pool1
I0429 22:12:24.035383 15324 net.cpp:425] pool1 <- conv1
I0429 22:12:24.035464 15324 net.cpp:399] pool1 -> pool1
I0429 22:12:24.035560 15324 net.cpp:141] Setting up pool1
I0429 22:12:24.035576 15324 net.cpp:148] Top shape: 64 20 12 12 (184320)
I0429 22:12:24.035580 15324 net.cpp:156] Memory required for data: 3887360
I0429 22:12:24.035585 15324 layer_factory.hpp:77] Creating layer conv2
I0429 22:12:24.035611 15324 net.cpp:91] Creating Layer conv2
I0429 22:12:24.035620 15324 net.cpp:425] conv2 <- pool1
I0429 22:12:24.035636 15324 net.cpp:399] conv2 -> conv2
I0429 22:12:24.037724 15324 net.cpp:141] Setting up conv2
I0429 22:12:24.037749 15324 net.cpp:148] Top shape: 64 50 8 8 (204800)
I0429 22:12:24.037755 15324 net.cpp:156] Memory required for data: 4706560
I0429 22:12:24.037768 15324 layer_factory.hpp:77] Creating layer pool2
I0429 22:12:24.037782 15324 net.cpp:91] Creating Layer pool2
I0429 22:12:24.037791 15324 net.cpp:425] pool2 <- conv2
I0429 22:12:24.037803 15324 net.cpp:399] pool2 -> pool2
I0429 22:12:24.037863 15324 net.cpp:141] Setting up pool2
I0429 22:12:24.037878 15324 net.cpp:148] Top shape: 64 50 4 4 (51200)
I0429 22:12:24.037883 15324 net.cpp:156] Memory required for data: 4911360
I0429 22:12:24.037889 15324 layer_factory.hpp:77] Creating layer ip1
I0429 22:12:24.037901 15324 net.cpp:91] Creating Layer ip1
I0429 22:12:24.037909 15324 net.cpp:425] ip1 <- pool2
I0429 22:12:24.037919 15324 net.cpp:399] ip1 -> ip1
I0429 22:12:24.043400 15324 net.cpp:141] Setting up ip1
I0429 22:12:24.043422 15324 net.cpp:148] Top shape: 64 500 (32000)
I0429 22:12:24.043427 15324 net.cpp:156] Memory required for data: 5039360
I0429 22:12:24.043442 15324 layer_factory.hpp:77] Creating layer relu1
I0429 22:12:24.043452 15324 net.cpp:91] Creating Layer relu1
I0429 22:12:24.043462 15324 net.cpp:425] relu1 <- ip1
I0429 22:12:24.043469 15324 net.cpp:386] relu1 -> ip1 (in-place)
I0429 22:12:24.043741 15324 net.cpp:141] Setting up relu1
I0429 22:12:24.043757 15324 net.cpp:148] Top shape: 64 500 (32000)
I0429 22:12:24.043762 15324 net.cpp:156] Memory required for data: 5167360
I0429 22:12:24.043768 15324 layer_factory.hpp:77] Creating layer ip2
I0429 22:12:24.043778 15324 net.cpp:91] Creating Layer ip2
I0429 22:12:24.043787 15324 net.cpp:425] ip2 <- ip1
I0429 22:12:24.043798 15324 net.cpp:399] ip2 -> ip2
I0429 22:12:24.044935 15324 net.cpp:141] Setting up ip2
I0429 22:12:24.044961 15324 net.cpp:148] Top shape: 64 10 (640)
I0429 22:12:24.044966 15324 net.cpp:156] Memory required for data: 5169920
I0429 22:12:24.044976 15324 layer_factory.hpp:77] Creating layer loss
I0429 22:12:24.044992 15324 net.cpp:91] Creating Layer loss
I0429 22:12:24.045002 15324 net.cpp:425] loss <- ip2
I0429 22:12:24.045009 15324 net.cpp:425] loss <- label
I0429 22:12:24.045037 15324 net.cpp:399] loss -> loss
I0429 22:12:24.045063 15324 layer_factory.hpp:77] Creating layer loss
…
I0429 22:12:24.046234 15324 solver.cpp:181] Creating test net (#0) specified by net file: examples/mnist/lenet_train_test.prototxt
I0429 22:12:24.046280 15324 net.cpp:313] The NetState phase (1) differed from the phase (0) specified by a rule in layer mnist
I0429 22:12:24.046470 15324 net.cpp:49] Initializing net from parameters: 
name: "LeNet"
state {
  phase: TEST
}
layer {
  name: "mnist"
  type: "Data"
  top: "data"
  top: "label"
  include {
    phase: TEST
  }
  transform_param {
    scale: 0.00390625
  }
  data_param {
    source: "examples/mnist/mnist_test_lmdb"
    batch_size: 100
    backend: LMDB
  }
}
layer {
  name: "conv1"
  type: "Convolution"
  bottom: "data"
  top: "conv1"
  param {
    lr_mult: 1
  }
  param {
    lr_mult: 2
  }
  convolution_param {
    num_output: 20
    kernel_size: 5
    stride: 1
    weight_filler {
      type: "xavier"
    }
    bias_filler {
      type: "constant"
    }
  }
}
layer {
  name: "pool1"
  type: "Pooling"
  bottom: "conv1"
  top: "pool1"
  pooling_param {
    pool: MAX
    kernel_size: 2
    stride: 2
  }
}
layer {
  name: "conv2"
  type: "Convolution"
  bottom: "pool1"
  top: "conv2"
  param {
    lr_mult: 1
  }
  param {
    lr_mult: 2
  }
  convolution_param {
    num_output: 50
    kernel_size: 5
    stride: 1
    weight_filler {
      type: "xavier"
    }
    bias_filler {
      type: "constant"
    }
  }
}
layer {
  name: "pool2"
  type: "Pooling"
  bottom: "conv2"
  top: "pool2"
  pooling_param {
    pool: MAX
    kernel_size: 2
    stride: 2
  }
}
layer {
  name: "ip1"
  type: "InnerProduct"
  bottom: "pool2"
  top: "ip1"
  param {
    lr_mult: 1
  }
  param {
    lr_mult: 2
  }
  inner_product_param {
    num_output: 500
    weight_filler {
      type: "xavier"
    }
    bias_filler {
      type: "constant"
    }
  }
}
layer {
  name: "relu1"
  type: "ReLU"
  bottom: "ip1"
  top: "ip1"
}
layer {
  name: "ip2"
  type: "InnerProduct"
  bottom: "ip1"
  top: "ip2"
  param {
    lr_mult: 1
  }
  param {
    lr_mult: 2
  }
  inner_product_param {
    num_output: 10
    weight_filler {
      type: "xavier"
    }
    bias_filler {
      type: "constant"
    }
  }
}
layer {
  name: "accuracy"
  type: "Accuracy"
  bottom: "ip2"
  bottom: "label"
  top: "accuracy"
  include {
    phase: TEST
  }
}
layer {
  name: "loss"
  type: "SoftmaxWithLoss"
  bottom: "ip2"
  bottom: "label"
  top: "loss"
}
I0429 22:12:24.046594 15324 layer_factory.hpp:77] Creating layer mnist
I0429 22:12:24.046792 15324 net.cpp:91] Creating Layer mnist
I0429 22:12:24.046808 15324 net.cpp:399] mnist -> data
I0429 22:12:24.046820 15324 net.cpp:399] mnist -> label
I0429 22:12:24.049075 15330 db_lmdb.cpp:35] Opened lmdb examples/mnist/mnist_test_lmdb
I0429 22:12:24.049335 15324 data_layer.cpp:41] output data size: 100,1,28,28
I0429 22:12:24.051419 15324 net.cpp:141] Setting up mnist
I0429 22:12:24.051445 15324 net.cpp:148] Top shape: 100 1 28 28 (78400)
I0429 22:12:24.051453 15324 net.cpp:148] Top shape: 100 (100)
I0429 22:12:24.051457 15324 net.cpp:156] Memory required for data: 314000
I0429 22:12:24.051467 15324 layer_factory.hpp:77] Creating layer label_mnist_1_split
I0429 22:12:24.051491 15324 net.cpp:91] Creating Layer label_mnist_1_split
I0429 22:12:24.051497 15324 net.cpp:425] label_mnist_1_split <- label
I0429 22:12:24.051507 15324 net.cpp:399] label_mnist_1_split -> label_mnist_1_split_0
I0429 22:12:24.051523 15324 net.cpp:399] label_mnist_1_split -> label_mnist_1_split_1
I0429 22:12:24.051627 15324 net.cpp:141] Setting up label_mnist_1_split
I0429 22:12:24.051656 15324 net.cpp:148] Top shape: 100 (100)
I0429 22:12:24.051662 15324 net.cpp:148] Top shape: 100 (100)
I0429 22:12:24.051666 15324 net.cpp:156] Memory required for data: 314800
I0429 22:12:24.051671 15324 layer_factory.hpp:77] Creating layer conv1
I0429 22:12:24.051695 15324 net.cpp:91] Creating Layer conv1
I0429 22:12:24.051702 15324 net.cpp:425] conv1 <- data
I0429 22:12:24.051712 15324 net.cpp:399] conv1 -> conv1
I0429 22:12:24.053647 15324 net.cpp:141] Setting up conv1
I0429 22:12:24.053668 15324 net.cpp:148] Top shape: 100 20 24 24 (1152000)
I0429 22:12:24.053673 15324 net.cpp:156] Memory required for data: 4922800
I0429 22:12:24.053690 15324 layer_factory.hpp:77] Creating layer pool1
I0429 22:12:24.053706 15324 net.cpp:91] Creating Layer pool1
I0429 22:12:24.053758 15324 net.cpp:425] pool1 <- conv1
I0429 22:12:24.053768 15324 net.cpp:399] pool1 -> pool1
I0429 22:12:24.053901 15324 net.cpp:141] Setting up pool1
I0429 22:12:24.053925 15324 net.cpp:148] Top shape: 100 20 12 12 (288000)
I0429 22:12:24.053930 15324 net.cpp:156] Memory required for data: 6074800
I0429 22:12:24.053936 15324 layer_factory.hpp:77] Creating layer conv2
I0429 22:12:24.053954 15324 net.cpp:91] Creating Layer conv2
I0429 22:12:24.053959 15324 net.cpp:425] conv2 <- pool1
I0429 22:12:24.053972 15324 net.cpp:399] conv2 -> conv2
I0429 22:12:24.055753 15324 net.cpp:141] Setting up conv2
I0429 22:12:24.055778 15324 net.cpp:148] Top shape: 100 50 8 8 (320000)
I0429 22:12:24.055783 15324 net.cpp:156] Memory required for data: 7354800
I0429 22:12:24.055796 15324 layer_factory.hpp:77] Creating layer pool2
I0429 22:12:24.055806 15324 net.cpp:91] Creating Layer pool2
I0429 22:12:24.055812 15324 net.cpp:425] pool2 <- conv2
I0429 22:12:24.055820 15324 net.cpp:399] pool2 -> pool2
I0429 22:12:24.055883 15324 net.cpp:141] Setting up pool2
I0429 22:12:24.055910 15324 net.cpp:148] Top shape: 100 50 4 4 (80000)
I0429 22:12:24.055915 15324 net.cpp:156] Memory required for data: 7674800
I0429 22:12:24.055922 15324 layer_factory.hpp:77] Creating layer ip1
I0429 22:12:24.055940 15324 net.cpp:91] Creating Layer ip1
I0429 22:12:24.055946 15324 net.cpp:425] ip1 <- pool2
I0429 22:12:24.055955 15324 net.cpp:399] ip1 -> ip1
I0429 22:12:24.061413 15324 net.cpp:141] Setting up ip1
I0429 22:12:24.061431 15324 net.cpp:148] Top shape: 100 500 (50000)
I0429 22:12:24.061436 15324 net.cpp:156] Memory required for data: 7874800
I0429 22:12:24.061450 15324 layer_factory.hpp:77] Creating layer relu1
I0429 22:12:24.061460 15324 net.cpp:91] Creating Layer relu1
I0429 22:12:24.061465 15324 net.cpp:425] relu1 <- ip1
I0429 22:12:24.061476 15324 net.cpp:386] relu1 -> ip1 (in-place)
I0429 22:12:24.061898 15324 net.cpp:141] Setting up relu1
I0429 22:12:24.061916 15324 net.cpp:148] Top shape: 100 500 (50000)
I0429 22:12:24.061921 15324 net.cpp:156] Memory required for data: 8074800
I0429 22:12:24.061926 15324 layer_factory.hpp:77] Creating layer ip2
I0429 22:12:24.061942 15324 net.cpp:91] Creating Layer ip2
I0429 22:12:24.061949 15324 net.cpp:425] ip2 <- ip1
I0429 22:12:24.061960 15324 net.cpp:399] ip2 -> ip2
I0429 22:12:24.062171 15324 net.cpp:141] Setting up ip2
I0429 22:12:24.062191 15324 net.cpp:148] Top shape: 100 10 (1000)
I0429 22:12:24.062196 15324 net.cpp:156] Memory required for data: 8078800
I0429 22:12:24.062206 15324 layer_factory.hpp:77] Creating layer ip2_ip2_0_split
I0429 22:12:24.062214 15324 net.cpp:91] Creating Layer ip2_ip2_0_split
I0429 22:12:24.062221 15324 net.cpp:425] ip2_ip2_0_split <- ip2
I0429 22:12:24.062227 15324 net.cpp:399] ip2_ip2_0_split -> ip2_ip2_0_split_0
I0429 22:12:24.062237 15324 net.cpp:399] ip2_ip2_0_split -> ip2_ip2_0_split_1
I0429 22:12:24.062293 15324 net.cpp:141] Setting up ip2_ip2_0_split
I0429 22:12:24.062305 15324 net.cpp:148] Top shape: 100 10 (1000)
I0429 22:12:24.062311 15324 net.cpp:148] Top shape: 100 10 (1000)
I0429 22:12:24.062315 15324 net.cpp:156] Memory required for data: 8086800
I0429 22:12:24.062320 15324 layer_factory.hpp:77] Creating layer accuracy
I0429 22:12:24.062333 15324 net.cpp:91] Creating Layer accuracy
I0429 22:12:24.062340 15324 net.cpp:425] accuracy <- ip2_ip2_0_split_0
I0429 22:12:24.062345 15324 net.cpp:425] accuracy <- label_mnist_1_split_0
I0429 22:12:24.062355 15324 net.cpp:399] accuracy -> accuracy
…
