…
I0429 22:16:27.971421 15458 net.cpp:313] The NetState phase (0) differed from the phase (1) specified by a rule in layer mnist
I0429 22:16:27.971451 15458 net.cpp:313] The NetState phase (0) differed from the phase (1) specified by a rule in layer accuracy
I0429 22:16:27.971565 15458 net.cpp:49] Initializing net from parameters: 
name: "LeNet"
state {
  phase: TRAIN
}
layer {
  name: "mnist"
  type: "Data"
  top: "data"
  top: "label"
  include {
    phase: TRAIN
  }
  transform_param {
    scale: 0.00390625
  }
  data_param {
    source: "examples/mnist/mnist_train_lmdb"
    batch_size: 64
    backend: LMDB
  }
}
layer {
  name: "conv1"
  type: "Convolution"
  bottom: "data"
  top: "conv1"
  param {
    lr_mult: 1
  }
  param {
    lr_mult: 2
  }
  convolution_param {
    num_output: 20
    kernel_size: 5
    stride: 1
    weight_filler {
      type: "xavier"
    }
    bias_filler {
      type: "constant"
    }
  }
}
layer {
  name: "pool1"
  type: "Pooling"
  bottom: "conv1"
  top: "pool1"
  pooling_param {
    pool: MAX
    kernel_size: 2
    stride: 2
  }
}
layer {
  name: "conv2"
  type: "Convolution"
  bottom: "pool1"
  top: "conv2"
  param {
    lr_mult: 1
  }
  param {
    lr_mult: 2
  }
  convolution_param {
    num_output: 50
    kernel_size: 5
    stride: 1
    weight_filler {
      type: "xavier"
    }
    bias_filler {
      type: "constant"
    }
  }
}
layer {
  name: "pool2"
  type: "Pooling"
  bottom: "conv2"
  top: "pool2"
  pooling_param {
    pool: MAX
    kernel_size: 2
    stride: 2
  }
}
layer {
  name: "ip1"
  type: "InnerProduct"
  bottom: "pool2"
  top: "ip1"
  param {
    lr_mult: 1
  }
  param {
    lr_mult: 2
  }
  inner_product_param {
    num_output: 500
    weight_filler {
      type: "xavier"
    }
    bias_filler {
      type: "constant"
    }
  }
}
layer {
  name: "relu1"
  type: "ReLU"
  bottom: "ip1"
  top: "ip1"
}
layer {
  name: "ip2"
  type: "InnerProduct"
  bottom: "ip1"
  top: "ip2"
  param {
    lr_mult: 1
  }
  param {
    lr_mult: 2
  }
  inner_product_param {
    num_output: 10
    weight_filler {
      type: "xavier"
    }
    bias_filler {
      type: "constant"
    }
  }
}
layer {
  name: "loss"
  type: "SoftmaxWithLoss"
  bottom: "ip2"
  bottom: "label"
  top: "loss"
}
I0429 22:16:27.971684 15458 layer_factory.hpp:77] Creating layer mnist
I0429 22:16:27.972419 15458 net.cpp:91] Creating Layer mnist
I0429 22:16:27.972472 15458 net.cpp:399] mnist -> data
I0429 22:16:27.972525 15458 net.cpp:399] mnist -> label
I0429 22:16:27.974565 15462 db_lmdb.cpp:35] Opened lmdb examples/mnist/mnist_train_lmdb
I0429 22:16:27.988833 15458 data_layer.cpp:41] output data size: 64,1,28,28
I0429 22:16:27.990465 15458 net.cpp:141] Setting up mnist
I0429 22:16:27.990527 15458 net.cpp:148] Top shape: 64 1 28 28 (50176)
I0429 22:16:27.990540 15458 net.cpp:148] Top shape: 64 (64)
I0429 22:16:27.990545 15458 net.cpp:156] Memory required for data: 200960
I0429 22:16:27.990556 15458 layer_factory.hpp:77] Creating layer conv1
I0429 22:16:27.990589 15458 net.cpp:91] Creating Layer conv1
I0429 22:16:27.990602 15458 net.cpp:425] conv1 <- data
I0429 22:16:27.990617 15458 net.cpp:399] conv1 -> conv1
I0429 22:16:27.992982 15463 blocking_queue.cpp:50] Waiting for data
I0429 22:16:28.204440 15458 net.cpp:141] Setting up conv1
I0429 22:16:28.204489 15458 net.cpp:148] Top shape: 64 20 24 24 (737280)
I0429 22:16:28.204496 15458 net.cpp:156] Memory required for data: 3150080
I0429 22:16:28.204526 15458 layer_factory.hpp:77] Creating layer pool1
I0429 22:16:28.204620 15458 net.cpp:91] Creating Layer pool1
I0429 22:16:28.204637 15458 net.cpp:425] pool1 <- conv1
I0429 22:16:28.204661 15458 net.cpp:399] pool1 -> pool1
I0429 22:16:28.204754 15458 net.cpp:141] Setting up pool1
I0429 22:16:28.204769 15458 net.cpp:148] Top shape: 64 20 12 12 (184320)
I0429 22:16:28.204774 15458 net.cpp:156] Memory required for data: 3887360
I0429 22:16:28.204780 15458 layer_factory.hpp:77] Creating layer conv2
I0429 22:16:28.204799 15458 net.cpp:91] Creating Layer conv2
I0429 22:16:28.204807 15458 net.cpp:425] conv2 <- pool1
I0429 22:16:28.204818 15458 net.cpp:399] conv2 -> conv2
I0429 22:16:28.206707 15458 net.cpp:141] Setting up conv2
I0429 22:16:28.206728 15458 net.cpp:148] Top shape: 64 50 8 8 (204800)
I0429 22:16:28.206734 15458 net.cpp:156] Memory required for data: 4706560
I0429 22:16:28.206748 15458 layer_factory.hpp:77] Creating layer pool2
I0429 22:16:28.206759 15458 net.cpp:91] Creating Layer pool2
I0429 22:16:28.206765 15458 net.cpp:425] pool2 <- conv2
I0429 22:16:28.206773 15458 net.cpp:399] pool2 -> pool2
I0429 22:16:28.206830 15458 net.cpp:141] Setting up pool2
I0429 22:16:28.206842 15458 net.cpp:148] Top shape: 64 50 4 4 (51200)
I0429 22:16:28.206847 15458 net.cpp:156] Memory required for data: 4911360
I0429 22:16:28.206852 15458 layer_factory.hpp:77] Creating layer ip1
I0429 22:16:28.206864 15458 net.cpp:91] Creating Layer ip1
I0429 22:16:28.206872 15458 net.cpp:425] ip1 <- pool2
I0429 22:16:28.206881 15458 net.cpp:399] ip1 -> ip1
I0429 22:16:28.212260 15458 net.cpp:141] Setting up ip1
I0429 22:16:28.212280 15458 net.cpp:148] Top shape: 64 500 (32000)
I0429 22:16:28.212285 15458 net.cpp:156] Memory required for data: 5039360
I0429 22:16:28.212297 15458 layer_factory.hpp:77] Creating layer relu1
I0429 22:16:28.212307 15458 net.cpp:91] Creating Layer relu1
I0429 22:16:28.212313 15458 net.cpp:425] relu1 <- ip1
I0429 22:16:28.212321 15458 net.cpp:386] relu1 -> ip1 (in-place)
I0429 22:16:28.212566 15458 net.cpp:141] Setting up relu1
I0429 22:16:28.212582 15458 net.cpp:148] Top shape: 64 500 (32000)
I0429 22:16:28.212587 15458 net.cpp:156] Memory required for data: 5167360
I0429 22:16:28.212594 15458 layer_factory.hpp:77] Creating layer ip2
I0429 22:16:28.212604 15458 net.cpp:91] Creating Layer ip2
I0429 22:16:28.212609 15458 net.cpp:425] ip2 <- ip1
I0429 22:16:28.212617 15458 net.cpp:399] ip2 -> ip2
I0429 22:16:28.213670 15458 net.cpp:141] Setting up ip2
I0429 22:16:28.213690 15458 net.cpp:148] Top shape: 64 10 (640)
I0429 22:16:28.213695 15458 net.cpp:156] Memory required for data: 5169920
I0429 22:16:28.213704 15458 layer_factory.hpp:77] Creating layer loss
I0429 22:16:28.213719 15458 net.cpp:91] Creating Layer loss
I0429 22:16:28.213726 15458 net.cpp:425] loss <- ip2
I0429 22:16:28.213732 15458 net.cpp:425] loss <- label
I0429 22:16:28.213742 15458 net.cpp:399] loss -> loss
I0429 22:16:28.213765 15458 layer_factory.hpp:77] Creating layer loss
…
I0429 22:16:28.214849 15458 solver.cpp:181] Creating test net (#0) specified by net file: examples/mnist/lenet_train_test.prototxt
I0429 22:16:28.214920 15458 net.cpp:313] The NetState phase (1) differed from the phase (0) specified by a rule in layer mnist
I0429 22:16:28.215055 15458 net.cpp:49] Initializing net from parameters: 
name: "LeNet"
state {
  phase: TEST
}
layer {
  name: "mnist"
  type: "Data"
  top: "data"
  top: "label"
  include {
    phase: TEST
  }
  transform_param {
    scale: 0.00390625
  }
  data_param {
    source: "examples/mnist/mnist_test_lmdb"
    batch_size: 100
    backend: LMDB
  }
}
layer {
  name: "conv1"
  type: "Convolution"
  bottom: "data"
  top: "conv1"
  param {
    lr_mult: 1
  }
  param {
    lr_mult: 2
  }
  convolution_param {
    num_output: 20
    kernel_size: 5
    stride: 1
    weight_filler {
      type: "xavier"
    }
    bias_filler {
      type: "constant"
    }
  }
}
layer {
  name: "pool1"
  type: "Pooling"
  bottom: "conv1"
  top: "pool1"
  pooling_param {
    pool: MAX
    kernel_size: 2
    stride: 2
  }
}
layer {
  name: "conv2"
  type: "Convolution"
  bottom: "pool1"
  top: "conv2"
  param {
    lr_mult: 1
  }
  param {
    lr_mult: 2
  }
  convolution_param {
    num_output: 50
    kernel_size: 5
    stride: 1
    weight_filler {
      type: "xavier"
    }
    bias_filler {
      type: "constant"
    }
  }
}
layer {
  name: "pool2"
  type: "Pooling"
  bottom: "conv2"
  top: "pool2"
  pooling_param {
    pool: MAX
    kernel_size: 2
    stride: 2
  }
}
layer {
  name: "ip1"
  type: "InnerProduct"
  bottom: "pool2"
  top: "ip1"
  param {
    lr_mult: 1
  }
  param {
    lr_mult: 2
  }
  inner_product_param {
    num_output: 500
    weight_filler {
      type: "xavier"
    }
    bias_filler {
      type: "constant"
    }
  }
}
layer {
  name: "relu1"
  type: "ReLU"
  bottom: "ip1"
  top: "ip1"
}
layer {
  name: "ip2"
  type: "InnerProduct"
  bottom: "ip1"
  top: "ip2"
  param {
    lr_mult: 1
  }
  param {
    lr_mult: 2
  }
  inner_product_param {
    num_output: 10
    weight_filler {
      type: "xavier"
    }
    bias_filler {
      type: "constant"
    }
  }
}
layer {
  name: "accuracy"
  type: "Accuracy"
  bottom: "ip2"
  bottom: "label"
  top: "accuracy"
  include {
    phase: TEST
  }
}
layer {
  name: "loss"
  type: "SoftmaxWithLoss"
  bottom: "ip2"
  bottom: "label"
  top: "loss"
}
I0429 22:16:28.215157 15458 layer_factory.hpp:77] Creating layer mnist
I0429 22:16:28.215325 15458 net.cpp:91] Creating Layer mnist
I0429 22:16:28.215342 15458 net.cpp:399] mnist -> data
I0429 22:16:28.215355 15458 net.cpp:399] mnist -> label
I0429 22:16:28.217592 15464 db_lmdb.cpp:35] Opened lmdb examples/mnist/mnist_test_lmdb
I0429 22:16:28.217838 15458 data_layer.cpp:41] output data size: 100,1,28,28
I0429 22:16:28.219733 15458 net.cpp:141] Setting up mnist
I0429 22:16:28.219755 15458 net.cpp:148] Top shape: 100 1 28 28 (78400)
I0429 22:16:28.219764 15458 net.cpp:148] Top shape: 100 (100)
I0429 22:16:28.219769 15458 net.cpp:156] Memory required for data: 314000
I0429 22:16:28.219775 15458 layer_factory.hpp:77] Creating layer label_mnist_1_split
I0429 22:16:28.219825 15458 net.cpp:91] Creating Layer label_mnist_1_split
I0429 22:16:28.219835 15458 net.cpp:425] label_mnist_1_split <- label
I0429 22:16:28.219844 15458 net.cpp:399] label_mnist_1_split -> label_mnist_1_split_0
I0429 22:16:28.219856 15458 net.cpp:399] label_mnist_1_split -> label_mnist_1_split_1
I0429 22:16:28.219992 15458 net.cpp:141] Setting up label_mnist_1_split
I0429 22:16:28.220006 15458 net.cpp:148] Top shape: 100 (100)
I0429 22:16:28.220013 15458 net.cpp:148] Top shape: 100 (100)
I0429 22:16:28.220017 15458 net.cpp:156] Memory required for data: 314800
I0429 22:16:28.220023 15458 layer_factory.hpp:77] Creating layer conv1
I0429 22:16:28.220038 15458 net.cpp:91] Creating Layer conv1
I0429 22:16:28.220043 15458 net.cpp:425] conv1 <- data
I0429 22:16:28.220053 15458 net.cpp:399] conv1 -> conv1
I0429 22:16:28.221968 15458 net.cpp:141] Setting up conv1
I0429 22:16:28.221988 15458 net.cpp:148] Top shape: 100 20 24 24 (1152000)
I0429 22:16:28.221994 15458 net.cpp:156] Memory required for data: 4922800
I0429 22:16:28.222035 15458 layer_factory.hpp:77] Creating layer pool1
I0429 22:16:28.222054 15458 net.cpp:91] Creating Layer pool1
I0429 22:16:28.222059 15458 net.cpp:425] pool1 <- conv1
I0429 22:16:28.222067 15458 net.cpp:399] pool1 -> pool1
I0429 22:16:28.222132 15458 net.cpp:141] Setting up pool1
I0429 22:16:28.222146 15458 net.cpp:148] Top shape: 100 20 12 12 (288000)
I0429 22:16:28.222151 15458 net.cpp:156] Memory required for data: 6074800
I0429 22:16:28.222156 15458 layer_factory.hpp:77] Creating layer conv2
I0429 22:16:28.222172 15458 net.cpp:91] Creating Layer conv2
I0429 22:16:28.222179 15458 net.cpp:425] conv2 <- pool1
I0429 22:16:28.222192 15458 net.cpp:399] conv2 -> conv2
I0429 22:16:28.223984 15458 net.cpp:141] Setting up conv2
I0429 22:16:28.224009 15458 net.cpp:148] Top shape: 100 50 8 8 (320000)
I0429 22:16:28.224014 15458 net.cpp:156] Memory required for data: 7354800
I0429 22:16:28.224031 15458 layer_factory.hpp:77] Creating layer pool2
I0429 22:16:28.224041 15458 net.cpp:91] Creating Layer pool2
I0429 22:16:28.224051 15458 net.cpp:425] pool2 <- conv2
I0429 22:16:28.224059 15458 net.cpp:399] pool2 -> pool2
I0429 22:16:28.224124 15458 net.cpp:141] Setting up pool2
I0429 22:16:28.224138 15458 net.cpp:148] Top shape: 100 50 4 4 (80000)
I0429 22:16:28.224143 15458 net.cpp:156] Memory required for data: 7674800
I0429 22:16:28.224148 15458 layer_factory.hpp:77] Creating layer ip1
I0429 22:16:28.224158 15458 net.cpp:91] Creating Layer ip1
I0429 22:16:28.224166 15458 net.cpp:425] ip1 <- pool2
I0429 22:16:28.224179 15458 net.cpp:399] ip1 -> ip1
I0429 22:16:28.229564 15458 net.cpp:141] Setting up ip1
I0429 22:16:28.229583 15458 net.cpp:148] Top shape: 100 500 (50000)
I0429 22:16:28.229588 15458 net.cpp:156] Memory required for data: 7874800
I0429 22:16:28.229601 15458 layer_factory.hpp:77] Creating layer relu1
I0429 22:16:28.229610 15458 net.cpp:91] Creating Layer relu1
I0429 22:16:28.229616 15458 net.cpp:425] relu1 <- ip1
I0429 22:16:28.229627 15458 net.cpp:386] relu1 -> ip1 (in-place)
I0429 22:16:28.230051 15458 net.cpp:141] Setting up relu1
I0429 22:16:28.230067 15458 net.cpp:148] Top shape: 100 500 (50000)
I0429 22:16:28.230072 15458 net.cpp:156] Memory required for data: 8074800
I0429 22:16:28.230077 15458 layer_factory.hpp:77] Creating layer ip2
I0429 22:16:28.230093 15458 net.cpp:91] Creating Layer ip2
I0429 22:16:28.230098 15458 net.cpp:425] ip2 <- ip1
I0429 22:16:28.230106 15458 net.cpp:399] ip2 -> ip2
I0429 22:16:28.230310 15458 net.cpp:141] Setting up ip2
I0429 22:16:28.230324 15458 net.cpp:148] Top shape: 100 10 (1000)
I0429 22:16:28.230329 15458 net.cpp:156] Memory required for data: 8078800
I0429 22:16:28.230339 15458 layer_factory.hpp:77] Creating layer ip2_ip2_0_split
I0429 22:16:28.230355 15458 net.cpp:91] Creating Layer ip2_ip2_0_split
I0429 22:16:28.230360 15458 net.cpp:425] ip2_ip2_0_split <- ip2
I0429 22:16:28.230367 15458 net.cpp:399] ip2_ip2_0_split -> ip2_ip2_0_split_0
I0429 22:16:28.230376 15458 net.cpp:399] ip2_ip2_0_split -> ip2_ip2_0_split_1
I0429 22:16:28.230434 15458 net.cpp:141] Setting up ip2_ip2_0_split
I0429 22:16:28.230446 15458 net.cpp:148] Top shape: 100 10 (1000)
I0429 22:16:28.230453 15458 net.cpp:148] Top shape: 100 10 (1000)
I0429 22:16:28.230456 15458 net.cpp:156] Memory required for data: 8086800
I0429 22:16:28.230461 15458 layer_factory.hpp:77] Creating layer accuracy
I0429 22:16:28.230473 15458 net.cpp:91] Creating Layer accuracy
I0429 22:16:28.230481 15458 net.cpp:425] accuracy <- ip2_ip2_0_split_0
I0429 22:16:28.230489 15458 net.cpp:425] accuracy <- label_mnist_1_split_0
I0429 22:16:28.230499 15458 net.cpp:399] accuracy -> accuracy
…
