…
I0429 22:28:48.495496 15940 net.cpp:313] The NetState phase (0) differed from the phase (1) specified by a rule in layer mnist
I0429 22:28:48.495527 15940 net.cpp:313] The NetState phase (0) differed from the phase (1) specified by a rule in layer accuracy
I0429 22:28:48.495645 15940 net.cpp:49] Initializing net from parameters: 
name: "LeNet"
state {
  phase: TRAIN
}
layer {
  name: "mnist"
  type: "Data"
  top: "data"
  top: "label"
  include {
    phase: TRAIN
  }
  transform_param {
    scale: 0.00390625
  }
  data_param {
    source: "examples/mnist/mnist_train_lmdb"
    batch_size: 128
    backend: LMDB
  }
}
layer {
  name: "conv1"
  type: "Convolution"
  bottom: "data"
  top: "conv1"
  param {
    lr_mult: 1
  }
  param {
    lr_mult: 2
  }
  convolution_param {
    num_output: 20
    kernel_size: 5
    stride: 1
    weight_filler {
      type: "xavier"
    }
    bias_filler {
      type: "constant"
    }
  }
}
layer {
  name: "pool1"
  type: "Pooling"
  bottom: "conv1"
  top: "pool1"
  pooling_param {
    pool: MAX
    kernel_size: 2
    stride: 2
  }
}
layer {
  name: "conv2"
  type: "Convolution"
  bottom: "pool1"
  top: "conv2"
  param {
    lr_mult: 1
  }
  param {
    lr_mult: 2
  }
  convolution_param {
    num_output: 50
    kernel_size: 5
    stride: 1
    weight_filler {
      type: "xavier"
    }
    bias_filler {
      type: "constant"
    }
  }
}
layer {
  name: "pool2"
  type: "Pooling"
  bottom: "conv2"
  top: "pool2"
  pooling_param {
    pool: MAX
    kernel_size: 2
    stride: 2
  }
}
layer {
  name: "ip1"
  type: "InnerProduct"
  bottom: "pool2"
  top: "ip1"
  param {
    lr_mult: 1
  }
  param {
    lr_mult: 2
  }
  inner_product_param {
    num_output: 500
    weight_filler {
      type: "xavier"
    }
    bias_filler {
      type: "constant"
    }
  }
}
layer {
  name: "relu1"
  type: "ReLU"
  bottom: "ip1"
  top: "ip1"
}
layer {
  name: "ip2"
  type: "InnerProduct"
  bottom: "ip1"
  top: "ip2"
  param {
    lr_mult: 1
  }
  param {
    lr_mult: 2
  }
  inner_product_param {
    num_output: 10
    weight_filler {
      type: "xavier"
    }
    bias_filler {
      type: "constant"
    }
  }
}
layer {
  name: "loss"
  type: "SoftmaxWithLoss"
  bottom: "ip2"
  bottom: "label"
  top: "loss"
}
I0429 22:28:48.495771 15940 layer_factory.hpp:77] Creating layer mnist
I0429 22:28:48.496580 15940 net.cpp:91] Creating Layer mnist
I0429 22:28:48.496670 15940 net.cpp:399] mnist -> data
I0429 22:28:48.496731 15940 net.cpp:399] mnist -> label
I0429 22:28:48.498750 15944 db_lmdb.cpp:35] Opened lmdb examples/mnist/mnist_train_lmdb
I0429 22:28:48.514097 15940 data_layer.cpp:41] output data size: 128,1,28,28
I0429 22:28:48.522866 15940 net.cpp:141] Setting up mnist
I0429 22:28:48.522904 15940 net.cpp:148] Top shape: 128 1 28 28 (100352)
I0429 22:28:48.522917 15940 net.cpp:148] Top shape: 128 (128)
I0429 22:28:48.522933 15940 net.cpp:156] Memory required for data: 401920
I0429 22:28:48.522953 15940 layer_factory.hpp:77] Creating layer conv1
I0429 22:28:48.523003 15940 net.cpp:91] Creating Layer conv1
I0429 22:28:48.523017 15940 net.cpp:425] conv1 <- data
I0429 22:28:48.523032 15940 net.cpp:399] conv1 -> conv1
I0429 22:28:48.797025 15940 net.cpp:141] Setting up conv1
I0429 22:28:48.797076 15940 net.cpp:148] Top shape: 128 20 24 24 (1474560)
I0429 22:28:48.797083 15940 net.cpp:156] Memory required for data: 6300160
I0429 22:28:48.797116 15940 layer_factory.hpp:77] Creating layer pool1
I0429 22:28:48.797143 15940 net.cpp:91] Creating Layer pool1
I0429 22:28:48.797154 15940 net.cpp:425] pool1 <- conv1
I0429 22:28:48.797224 15940 net.cpp:399] pool1 -> pool1
I0429 22:28:48.797312 15940 net.cpp:141] Setting up pool1
I0429 22:28:48.797327 15940 net.cpp:148] Top shape: 128 20 12 12 (368640)
I0429 22:28:48.797332 15940 net.cpp:156] Memory required for data: 7774720
I0429 22:28:48.797336 15940 layer_factory.hpp:77] Creating layer conv2
I0429 22:28:48.797358 15940 net.cpp:91] Creating Layer conv2
I0429 22:28:48.797365 15940 net.cpp:425] conv2 <- pool1
I0429 22:28:48.797374 15940 net.cpp:399] conv2 -> conv2
I0429 22:28:48.800530 15940 net.cpp:141] Setting up conv2
I0429 22:28:48.800552 15940 net.cpp:148] Top shape: 128 50 8 8 (409600)
I0429 22:28:48.800559 15940 net.cpp:156] Memory required for data: 9413120
I0429 22:28:48.800572 15940 layer_factory.hpp:77] Creating layer pool2
I0429 22:28:48.800585 15940 net.cpp:91] Creating Layer pool2
I0429 22:28:48.800591 15940 net.cpp:425] pool2 <- conv2
I0429 22:28:48.800600 15940 net.cpp:399] pool2 -> pool2
I0429 22:28:48.800657 15940 net.cpp:141] Setting up pool2
I0429 22:28:48.800669 15940 net.cpp:148] Top shape: 128 50 4 4 (102400)
I0429 22:28:48.800674 15940 net.cpp:156] Memory required for data: 9822720
I0429 22:28:48.800680 15940 layer_factory.hpp:77] Creating layer ip1
I0429 22:28:48.800694 15940 net.cpp:91] Creating Layer ip1
I0429 22:28:48.800703 15940 net.cpp:425] ip1 <- pool2
I0429 22:28:48.800710 15940 net.cpp:399] ip1 -> ip1
I0429 22:28:48.806125 15940 net.cpp:141] Setting up ip1
I0429 22:28:48.806144 15940 net.cpp:148] Top shape: 128 500 (64000)
I0429 22:28:48.806150 15940 net.cpp:156] Memory required for data: 10078720
I0429 22:28:48.806164 15940 layer_factory.hpp:77] Creating layer relu1
I0429 22:28:48.806179 15940 net.cpp:91] Creating Layer relu1
I0429 22:28:48.806185 15940 net.cpp:425] relu1 <- ip1
I0429 22:28:48.806192 15940 net.cpp:386] relu1 -> ip1 (in-place)
I0429 22:28:48.806457 15940 net.cpp:141] Setting up relu1
I0429 22:28:48.806473 15940 net.cpp:148] Top shape: 128 500 (64000)
I0429 22:28:48.806478 15940 net.cpp:156] Memory required for data: 10334720
I0429 22:28:48.806484 15940 layer_factory.hpp:77] Creating layer ip2
I0429 22:28:48.806496 15940 net.cpp:91] Creating Layer ip2
I0429 22:28:48.806504 15940 net.cpp:425] ip2 <- ip1
I0429 22:28:48.806514 15940 net.cpp:399] ip2 -> ip2
I0429 22:28:48.807608 15940 net.cpp:141] Setting up ip2
I0429 22:28:48.807626 15940 net.cpp:148] Top shape: 128 10 (1280)
I0429 22:28:48.807632 15940 net.cpp:156] Memory required for data: 10339840
I0429 22:28:48.807641 15940 layer_factory.hpp:77] Creating layer loss
I0429 22:28:48.807659 15940 net.cpp:91] Creating Layer loss
I0429 22:28:48.807665 15940 net.cpp:425] loss <- ip2
I0429 22:28:48.807672 15940 net.cpp:425] loss <- label
I0429 22:28:48.807680 15940 net.cpp:399] loss -> loss
I0429 22:28:48.807705 15940 layer_factory.hpp:77] Creating layer loss
…
I0429 22:28:48.809753 15940 solver.cpp:181] Creating test net (#0) specified by net file: examples/mnist/lenet_train_test.prototxt
I0429 22:28:48.809798 15940 net.cpp:313] The NetState phase (1) differed from the phase (0) specified by a rule in layer mnist
I0429 22:28:48.809980 15940 net.cpp:49] Initializing net from parameters: 
name: "LeNet"
state {
  phase: TEST
}
layer {
  name: "mnist"
  type: "Data"
  top: "data"
  top: "label"
  include {
    phase: TEST
  }
  transform_param {
    scale: 0.00390625
  }
  data_param {
    source: "examples/mnist/mnist_test_lmdb"
    batch_size: 100
    backend: LMDB
  }
}
layer {
  name: "conv1"
  type: "Convolution"
  bottom: "data"
  top: "conv1"
  param {
    lr_mult: 1
  }
  param {
    lr_mult: 2
  }
  convolution_param {
    num_output: 20
    kernel_size: 5
    stride: 1
    weight_filler {
      type: "xavier"
    }
    bias_filler {
      type: "constant"
    }
  }
}
layer {
  name: "pool1"
  type: "Pooling"
  bottom: "conv1"
  top: "pool1"
  pooling_param {
    pool: MAX
    kernel_size: 2
    stride: 2
  }
}
layer {
  name: "conv2"
  type: "Convolution"
  bottom: "pool1"
  top: "conv2"
  param {
    lr_mult: 1
  }
  param {
    lr_mult: 2
  }
  convolution_param {
    num_output: 50
    kernel_size: 5
    stride: 1
    weight_filler {
      type: "xavier"
    }
    bias_filler {
      type: "constant"
    }
  }
}
layer {
  name: "pool2"
  type: "Pooling"
  bottom: "conv2"
  top: "pool2"
  pooling_param {
    pool: MAX
    kernel_size: 2
    stride: 2
  }
}
layer {
  name: "ip1"
  type: "InnerProduct"
  bottom: "pool2"
  top: "ip1"
  param {
    lr_mult: 1
  }
  param {
    lr_mult: 2
  }
  inner_product_param {
    num_output: 500
    weight_filler {
      type: "xavier"
    }
    bias_filler {
      type: "constant"
    }
  }
}
layer {
  name: "relu1"
  type: "ReLU"
  bottom: "ip1"
  top: "ip1"
}
layer {
  name: "ip2"
  type: "InnerProduct"
  bottom: "ip1"
  top: "ip2"
  param {
    lr_mult: 1
  }
  param {
    lr_mult: 2
  }
  inner_product_param {
    num_output: 10
    weight_filler {
      type: "xavier"
    }
    bias_filler {
      type: "constant"
    }
  }
}
layer {
  name: "accuracy"
  type: "Accuracy"
  bottom: "ip2"
  bottom: "label"
  top: "accuracy"
  include {
    phase: TEST
  }
}
layer {
  name: "loss"
  type: "SoftmaxWithLoss"
  bottom: "ip2"
  bottom: "label"
  top: "loss"
}
I0429 22:28:48.810086 15940 layer_factory.hpp:77] Creating layer mnist
I0429 22:28:48.810258 15940 net.cpp:91] Creating Layer mnist
I0429 22:28:48.810271 15940 net.cpp:399] mnist -> data
I0429 22:28:48.810286 15940 net.cpp:399] mnist -> label
I0429 22:28:48.812391 15946 db_lmdb.cpp:35] Opened lmdb examples/mnist/mnist_test_lmdb
I0429 22:28:48.812631 15940 data_layer.cpp:41] output data size: 100,1,28,28
I0429 22:28:48.814733 15940 net.cpp:141] Setting up mnist
I0429 22:28:48.814761 15940 net.cpp:148] Top shape: 100 1 28 28 (78400)
I0429 22:28:48.814770 15940 net.cpp:148] Top shape: 100 (100)
I0429 22:28:48.814776 15940 net.cpp:156] Memory required for data: 314000
I0429 22:28:48.814785 15940 layer_factory.hpp:77] Creating layer label_mnist_1_split
I0429 22:28:48.814805 15940 net.cpp:91] Creating Layer label_mnist_1_split
I0429 22:28:48.814811 15940 net.cpp:425] label_mnist_1_split <- label
I0429 22:28:48.814821 15940 net.cpp:399] label_mnist_1_split -> label_mnist_1_split_0
I0429 22:28:48.814836 15940 net.cpp:399] label_mnist_1_split -> label_mnist_1_split_1
I0429 22:28:48.814997 15940 net.cpp:141] Setting up label_mnist_1_split
I0429 22:28:48.815012 15940 net.cpp:148] Top shape: 100 (100)
I0429 22:28:48.815019 15940 net.cpp:148] Top shape: 100 (100)
I0429 22:28:48.815024 15940 net.cpp:156] Memory required for data: 314800
I0429 22:28:48.815029 15940 layer_factory.hpp:77] Creating layer conv1
I0429 22:28:48.815047 15940 net.cpp:91] Creating Layer conv1
I0429 22:28:48.815057 15940 net.cpp:425] conv1 <- data
I0429 22:28:48.815068 15940 net.cpp:399] conv1 -> conv1
I0429 22:28:48.816963 15940 net.cpp:141] Setting up conv1
I0429 22:28:48.816988 15940 net.cpp:148] Top shape: 100 20 24 24 (1152000)
I0429 22:28:48.816993 15940 net.cpp:156] Memory required for data: 4922800
I0429 22:28:48.817010 15940 layer_factory.hpp:77] Creating layer pool1
I0429 22:28:48.817066 15940 net.cpp:91] Creating Layer pool1
I0429 22:28:48.817073 15940 net.cpp:425] pool1 <- conv1
I0429 22:28:48.817090 15940 net.cpp:399] pool1 -> pool1
I0429 22:28:48.817220 15940 net.cpp:141] Setting up pool1
I0429 22:28:48.817234 15940 net.cpp:148] Top shape: 100 20 12 12 (288000)
I0429 22:28:48.817239 15940 net.cpp:156] Memory required for data: 6074800
I0429 22:28:48.817244 15940 layer_factory.hpp:77] Creating layer conv2
I0429 22:28:48.817265 15940 net.cpp:91] Creating Layer conv2
I0429 22:28:48.817273 15940 net.cpp:425] conv2 <- pool1
I0429 22:28:48.817282 15940 net.cpp:399] conv2 -> conv2
I0429 22:28:48.819155 15940 net.cpp:141] Setting up conv2
I0429 22:28:48.819174 15940 net.cpp:148] Top shape: 100 50 8 8 (320000)
I0429 22:28:48.819180 15940 net.cpp:156] Memory required for data: 7354800
I0429 22:28:48.819195 15940 layer_factory.hpp:77] Creating layer pool2
I0429 22:28:48.819206 15940 net.cpp:91] Creating Layer pool2
I0429 22:28:48.819212 15940 net.cpp:425] pool2 <- conv2
I0429 22:28:48.819223 15940 net.cpp:399] pool2 -> pool2
I0429 22:28:48.819296 15940 net.cpp:141] Setting up pool2
I0429 22:28:48.819315 15940 net.cpp:148] Top shape: 100 50 4 4 (80000)
I0429 22:28:48.819320 15940 net.cpp:156] Memory required for data: 7674800
I0429 22:28:48.819325 15940 layer_factory.hpp:77] Creating layer ip1
I0429 22:28:48.819337 15940 net.cpp:91] Creating Layer ip1
I0429 22:28:48.819346 15940 net.cpp:425] ip1 <- pool2
I0429 22:28:48.819358 15940 net.cpp:399] ip1 -> ip1
I0429 22:28:48.825156 15940 net.cpp:141] Setting up ip1
I0429 22:28:48.825178 15940 net.cpp:148] Top shape: 100 500 (50000)
I0429 22:28:48.825183 15940 net.cpp:156] Memory required for data: 7874800
I0429 22:28:48.825196 15940 layer_factory.hpp:77] Creating layer relu1
I0429 22:28:48.825206 15940 net.cpp:91] Creating Layer relu1
I0429 22:28:48.825212 15940 net.cpp:425] relu1 <- ip1
I0429 22:28:48.825219 15940 net.cpp:386] relu1 -> ip1 (in-place)
I0429 22:28:48.825649 15940 net.cpp:141] Setting up relu1
I0429 22:28:48.825675 15940 net.cpp:148] Top shape: 100 500 (50000)
I0429 22:28:48.825680 15940 net.cpp:156] Memory required for data: 8074800
I0429 22:28:48.825685 15940 layer_factory.hpp:77] Creating layer ip2
I0429 22:28:48.825697 15940 net.cpp:91] Creating Layer ip2
I0429 22:28:48.825702 15940 net.cpp:425] ip2 <- ip1
I0429 22:28:48.825713 15940 net.cpp:399] ip2 -> ip2
I0429 22:28:48.825930 15940 net.cpp:141] Setting up ip2
I0429 22:28:48.825944 15940 net.cpp:148] Top shape: 100 10 (1000)
I0429 22:28:48.825949 15940 net.cpp:156] Memory required for data: 8078800
I0429 22:28:48.825958 15940 layer_factory.hpp:77] Creating layer ip2_ip2_0_split
I0429 22:28:48.825968 15940 net.cpp:91] Creating Layer ip2_ip2_0_split
I0429 22:28:48.825975 15940 net.cpp:425] ip2_ip2_0_split <- ip2
I0429 22:28:48.825987 15940 net.cpp:399] ip2_ip2_0_split -> ip2_ip2_0_split_0
I0429 22:28:48.825997 15940 net.cpp:399] ip2_ip2_0_split -> ip2_ip2_0_split_1
I0429 22:28:48.826050 15940 net.cpp:141] Setting up ip2_ip2_0_split
I0429 22:28:48.826062 15940 net.cpp:148] Top shape: 100 10 (1000)
I0429 22:28:48.826071 15940 net.cpp:148] Top shape: 100 10 (1000)
I0429 22:28:48.826076 15940 net.cpp:156] Memory required for data: 8086800
I0429 22:28:48.826081 15940 layer_factory.hpp:77] Creating layer accuracy
I0429 22:28:48.826094 15940 net.cpp:91] Creating Layer accuracy
I0429 22:28:48.826102 15940 net.cpp:425] accuracy <- ip2_ip2_0_split_0
I0429 22:28:48.826109 15940 net.cpp:425] accuracy <- label_mnist_1_split_0
I0429 22:28:48.826117 15940 net.cpp:399] accuracy -> accuracy
…
