…
I0429 22:18:22.794159 15532 net.cpp:313] The NetState phase (0) differed from the phase (1) specified by a rule in layer mnist
I0429 22:18:22.794188 15532 net.cpp:313] The NetState phase (0) differed from the phase (1) specified by a rule in layer accuracy
I0429 22:18:22.794301 15532 net.cpp:49] Initializing net from parameters: 
name: "LeNet"
state {
  phase: TRAIN
}
layer {
  name: "mnist"
  type: "Data"
  top: "data"
  top: "label"
  include {
    phase: TRAIN
  }
  transform_param {
    scale: 0.00390625
  }
  data_param {
    source: "examples/mnist/mnist_train_lmdb"
    batch_size: 64
    backend: LMDB
  }
}
layer {
  name: "conv1"
  type: "Convolution"
  bottom: "data"
  top: "conv1"
  param {
    lr_mult: 1
  }
  param {
    lr_mult: 2
  }
  convolution_param {
    num_output: 20
    kernel_size: 5
    stride: 1
    weight_filler {
      type: "xavier"
    }
    bias_filler {
      type: "constant"
    }
  }
}
layer {
  name: "pool1"
  type: "Pooling"
  bottom: "conv1"
  top: "pool1"
  pooling_param {
    pool: MAX
    kernel_size: 2
    stride: 2
  }
}
layer {
  name: "conv2"
  type: "Convolution"
  bottom: "pool1"
  top: "conv2"
  param {
    lr_mult: 1
  }
  param {
    lr_mult: 2
  }
  convolution_param {
    num_output: 50
    kernel_size: 5
    stride: 1
    weight_filler {
      type: "xavier"
    }
    bias_filler {
      type: "constant"
    }
  }
}
layer {
  name: "pool2"
  type: "Pooling"
  bottom: "conv2"
  top: "pool2"
  pooling_param {
    pool: MAX
    kernel_size: 2
    stride: 2
  }
}
layer {
  name: "ip1"
  type: "InnerProduct"
  bottom: "pool2"
  top: "ip1"
  param {
    lr_mult: 1
  }
  param {
    lr_mult: 2
  }
  inner_product_param {
    num_output: 500
    weight_filler {
      type: "xavier"
    }
    bias_filler {
      type: "constant"
    }
  }
}
layer {
  name: "relu1"
  type: "ReLU"
  bottom: "ip1"
  top: "ip1"
}
layer {
  name: "ip2"
  type: "InnerProduct"
  bottom: "ip1"
  top: "ip2"
  param {
    lr_mult: 1
  }
  param {
    lr_mult: 2
  }
  inner_product_param {
    num_output: 10
    weight_filler {
      type: "xavier"
    }
    bias_filler {
      type: "constant"
    }
  }
}
layer {
  name: "loss"
  type: "SoftmaxWithLoss"
  bottom: "ip2"
  bottom: "label"
  top: "loss"
}
I0429 22:18:22.794416 15532 layer_factory.hpp:77] Creating layer mnist
I0429 22:18:22.795146 15532 net.cpp:91] Creating Layer mnist
I0429 22:18:22.795172 15532 net.cpp:399] mnist -> data
I0429 22:18:22.795280 15532 net.cpp:399] mnist -> label
I0429 22:18:22.797343 15539 db_lmdb.cpp:35] Opened lmdb examples/mnist/mnist_train_lmdb
I0429 22:18:22.811522 15532 data_layer.cpp:41] output data size: 64,1,28,28
I0429 22:18:22.813146 15532 net.cpp:141] Setting up mnist
I0429 22:18:22.813215 15532 net.cpp:148] Top shape: 64 1 28 28 (50176)
I0429 22:18:22.813230 15532 net.cpp:148] Top shape: 64 (64)
I0429 22:18:22.813235 15532 net.cpp:156] Memory required for data: 200960
I0429 22:18:22.813246 15532 layer_factory.hpp:77] Creating layer conv1
I0429 22:18:22.813276 15532 net.cpp:91] Creating Layer conv1
I0429 22:18:22.813287 15532 net.cpp:425] conv1 <- data
I0429 22:18:22.813310 15532 net.cpp:399] conv1 -> conv1
I0429 22:18:22.817550 15540 blocking_queue.cpp:50] Waiting for data
I0429 22:18:23.036438 15532 net.cpp:141] Setting up conv1
I0429 22:18:23.036489 15532 net.cpp:148] Top shape: 64 20 24 24 (737280)
I0429 22:18:23.036588 15532 net.cpp:156] Memory required for data: 3150080
I0429 22:18:23.036641 15532 layer_factory.hpp:77] Creating layer pool1
I0429 22:18:23.036685 15532 net.cpp:91] Creating Layer pool1
I0429 22:18:23.036696 15532 net.cpp:425] pool1 <- conv1
I0429 22:18:23.036711 15532 net.cpp:399] pool1 -> pool1
I0429 22:18:23.036815 15532 net.cpp:141] Setting up pool1
I0429 22:18:23.036830 15532 net.cpp:148] Top shape: 64 20 12 12 (184320)
I0429 22:18:23.036834 15532 net.cpp:156] Memory required for data: 3887360
I0429 22:18:23.036840 15532 layer_factory.hpp:77] Creating layer conv2
I0429 22:18:23.036864 15532 net.cpp:91] Creating Layer conv2
I0429 22:18:23.036870 15532 net.cpp:425] conv2 <- pool1
I0429 22:18:23.036882 15532 net.cpp:399] conv2 -> conv2
I0429 22:18:23.038945 15532 net.cpp:141] Setting up conv2
I0429 22:18:23.038966 15532 net.cpp:148] Top shape: 64 50 8 8 (204800)
I0429 22:18:23.038972 15532 net.cpp:156] Memory required for data: 4706560
I0429 22:18:23.038986 15532 layer_factory.hpp:77] Creating layer pool2
I0429 22:18:23.039016 15532 net.cpp:91] Creating Layer pool2
I0429 22:18:23.039022 15532 net.cpp:425] pool2 <- conv2
I0429 22:18:23.039031 15532 net.cpp:399] pool2 -> pool2
I0429 22:18:23.039091 15532 net.cpp:141] Setting up pool2
I0429 22:18:23.039105 15532 net.cpp:148] Top shape: 64 50 4 4 (51200)
I0429 22:18:23.039110 15532 net.cpp:156] Memory required for data: 4911360
I0429 22:18:23.039115 15532 layer_factory.hpp:77] Creating layer ip1
I0429 22:18:23.039129 15532 net.cpp:91] Creating Layer ip1
I0429 22:18:23.039134 15532 net.cpp:425] ip1 <- pool2
I0429 22:18:23.039145 15532 net.cpp:399] ip1 -> ip1
I0429 22:18:23.044682 15532 net.cpp:141] Setting up ip1
I0429 22:18:23.044705 15532 net.cpp:148] Top shape: 64 500 (32000)
I0429 22:18:23.044710 15532 net.cpp:156] Memory required for data: 5039360
I0429 22:18:23.044724 15532 layer_factory.hpp:77] Creating layer relu1
I0429 22:18:23.044735 15532 net.cpp:91] Creating Layer relu1
I0429 22:18:23.044741 15532 net.cpp:425] relu1 <- ip1
I0429 22:18:23.044749 15532 net.cpp:386] relu1 -> ip1 (in-place)
I0429 22:18:23.045027 15532 net.cpp:141] Setting up relu1
I0429 22:18:23.045042 15532 net.cpp:148] Top shape: 64 500 (32000)
I0429 22:18:23.045048 15532 net.cpp:156] Memory required for data: 5167360
I0429 22:18:23.045054 15532 layer_factory.hpp:77] Creating layer ip2
I0429 22:18:23.045069 15532 net.cpp:91] Creating Layer ip2
I0429 22:18:23.045075 15532 net.cpp:425] ip2 <- ip1
I0429 22:18:23.045083 15532 net.cpp:399] ip2 -> ip2
I0429 22:18:23.046270 15532 net.cpp:141] Setting up ip2
I0429 22:18:23.046289 15532 net.cpp:148] Top shape: 64 10 (640)
I0429 22:18:23.046294 15532 net.cpp:156] Memory required for data: 5169920
I0429 22:18:23.046304 15532 layer_factory.hpp:77] Creating layer loss
I0429 22:18:23.046321 15532 net.cpp:91] Creating Layer loss
I0429 22:18:23.046327 15532 net.cpp:425] loss <- ip2
I0429 22:18:23.046334 15532 net.cpp:425] loss <- label
I0429 22:18:23.046347 15532 net.cpp:399] loss -> loss
I0429 22:18:23.046386 15532 layer_factory.hpp:77] Creating layer loss
…
I0429 22:18:23.047667 15532 solver.cpp:181] Creating test net (#0) specified by net file: examples/mnist/lenet_train_test.prototxt
I0429 22:18:23.047713 15532 net.cpp:313] The NetState phase (1) differed from the phase (0) specified by a rule in layer mnist
I0429 22:18:23.047860 15532 net.cpp:49] Initializing net from parameters: 
name: "LeNet"
state {
  phase: TEST
}
layer {
  name: "mnist"
  type: "Data"
  top: "data"
  top: "label"
  include {
    phase: TEST
  }
  transform_param {
    scale: 0.00390625
  }
  data_param {
    source: "examples/mnist/mnist_test_lmdb"
    batch_size: 100
    backend: LMDB
  }
}
layer {
  name: "conv1"
  type: "Convolution"
  bottom: "data"
  top: "conv1"
  param {
    lr_mult: 1
  }
  param {
    lr_mult: 2
  }
  convolution_param {
    num_output: 20
    kernel_size: 5
    stride: 1
    weight_filler {
      type: "xavier"
    }
    bias_filler {
      type: "constant"
    }
  }
}
layer {
  name: "pool1"
  type: "Pooling"
  bottom: "conv1"
  top: "pool1"
  pooling_param {
    pool: MAX
    kernel_size: 2
    stride: 2
  }
}
layer {
  name: "conv2"
  type: "Convolution"
  bottom: "pool1"
  top: "conv2"
  param {
    lr_mult: 1
  }
  param {
    lr_mult: 2
  }
  convolution_param {
    num_output: 50
    kernel_size: 5
    stride: 1
    weight_filler {
      type: "xavier"
    }
    bias_filler {
      type: "constant"
    }
  }
}
layer {
  name: "pool2"
  type: "Pooling"
  bottom: "conv2"
  top: "pool2"
  pooling_param {
    pool: MAX
    kernel_size: 2
    stride: 2
  }
}
layer {
  name: "ip1"
  type: "InnerProduct"
  bottom: "pool2"
  top: "ip1"
  param {
    lr_mult: 1
  }
  param {
    lr_mult: 2
  }
  inner_product_param {
    num_output: 500
    weight_filler {
      type: "xavier"
    }
    bias_filler {
      type: "constant"
    }
  }
}
layer {
  name: "relu1"
  type: "ReLU"
  bottom: "ip1"
  top: "ip1"
}
layer {
  name: "ip2"
  type: "InnerProduct"
  bottom: "ip1"
  top: "ip2"
  param {
    lr_mult: 1
  }
  param {
    lr_mult: 2
  }
  inner_product_param {
    num_output: 10
    weight_filler {
      type: "xavier"
    }
    bias_filler {
      type: "constant"
    }
  }
}
layer {
  name: "accuracy"
  type: "Accuracy"
  bottom: "ip2"
  bottom: "label"
  top: "accuracy"
  include {
    phase: TEST
  }
}
layer {
  name: "loss"
  type: "SoftmaxWithLoss"
  bottom: "ip2"
  bottom: "label"
  top: "loss"
}
I0429 22:18:23.047982 15532 layer_factory.hpp:77] Creating layer mnist
I0429 22:18:23.048162 15532 net.cpp:91] Creating Layer mnist
I0429 22:18:23.048174 15532 net.cpp:399] mnist -> data
I0429 22:18:23.048187 15532 net.cpp:399] mnist -> label
I0429 22:18:23.050426 15541 db_lmdb.cpp:35] Opened lmdb examples/mnist/mnist_test_lmdb
I0429 22:18:23.050633 15532 data_layer.cpp:41] output data size: 100,1,28,28
I0429 22:18:23.052570 15532 net.cpp:141] Setting up mnist
I0429 22:18:23.052592 15532 net.cpp:148] Top shape: 100 1 28 28 (78400)
I0429 22:18:23.052599 15532 net.cpp:148] Top shape: 100 (100)
I0429 22:18:23.052604 15532 net.cpp:156] Memory required for data: 314000
I0429 22:18:23.052610 15532 layer_factory.hpp:77] Creating layer label_mnist_1_split
I0429 22:18:23.052628 15532 net.cpp:91] Creating Layer label_mnist_1_split
I0429 22:18:23.052633 15532 net.cpp:425] label_mnist_1_split <- label
I0429 22:18:23.052640 15532 net.cpp:399] label_mnist_1_split -> label_mnist_1_split_0
I0429 22:18:23.052652 15532 net.cpp:399] label_mnist_1_split -> label_mnist_1_split_1
I0429 22:18:23.052858 15532 net.cpp:141] Setting up label_mnist_1_split
I0429 22:18:23.052893 15532 net.cpp:148] Top shape: 100 (100)
I0429 22:18:23.052901 15532 net.cpp:148] Top shape: 100 (100)
I0429 22:18:23.052906 15532 net.cpp:156] Memory required for data: 314800
I0429 22:18:23.052914 15532 layer_factory.hpp:77] Creating layer conv1
I0429 22:18:23.052942 15532 net.cpp:91] Creating Layer conv1
I0429 22:18:23.052950 15532 net.cpp:425] conv1 <- data
I0429 22:18:23.052961 15532 net.cpp:399] conv1 -> conv1
I0429 22:18:23.054848 15532 net.cpp:141] Setting up conv1
I0429 22:18:23.054908 15532 net.cpp:148] Top shape: 100 20 24 24 (1152000)
I0429 22:18:23.054915 15532 net.cpp:156] Memory required for data: 4922800
I0429 22:18:23.054934 15532 layer_factory.hpp:77] Creating layer pool1
I0429 22:18:23.054950 15532 net.cpp:91] Creating Layer pool1
I0429 22:18:23.054956 15532 net.cpp:425] pool1 <- conv1
I0429 22:18:23.054967 15532 net.cpp:399] pool1 -> pool1
I0429 22:18:23.055116 15532 net.cpp:141] Setting up pool1
I0429 22:18:23.055130 15532 net.cpp:148] Top shape: 100 20 12 12 (288000)
I0429 22:18:23.055135 15532 net.cpp:156] Memory required for data: 6074800
I0429 22:18:23.055141 15532 layer_factory.hpp:77] Creating layer conv2
I0429 22:18:23.055160 15532 net.cpp:91] Creating Layer conv2
I0429 22:18:23.055168 15532 net.cpp:425] conv2 <- pool1
I0429 22:18:23.055181 15532 net.cpp:399] conv2 -> conv2
I0429 22:18:23.057057 15532 net.cpp:141] Setting up conv2
I0429 22:18:23.057082 15532 net.cpp:148] Top shape: 100 50 8 8 (320000)
I0429 22:18:23.057090 15532 net.cpp:156] Memory required for data: 7354800
I0429 22:18:23.057106 15532 layer_factory.hpp:77] Creating layer pool2
I0429 22:18:23.057116 15532 net.cpp:91] Creating Layer pool2
I0429 22:18:23.057121 15532 net.cpp:425] pool2 <- conv2
I0429 22:18:23.057132 15532 net.cpp:399] pool2 -> pool2
I0429 22:18:23.057194 15532 net.cpp:141] Setting up pool2
I0429 22:18:23.057209 15532 net.cpp:148] Top shape: 100 50 4 4 (80000)
I0429 22:18:23.057214 15532 net.cpp:156] Memory required for data: 7674800
I0429 22:18:23.057219 15532 layer_factory.hpp:77] Creating layer ip1
I0429 22:18:23.057240 15532 net.cpp:91] Creating Layer ip1
I0429 22:18:23.057250 15532 net.cpp:425] ip1 <- pool2
I0429 22:18:23.057262 15532 net.cpp:399] ip1 -> ip1
I0429 22:18:23.062858 15532 net.cpp:141] Setting up ip1
I0429 22:18:23.062878 15532 net.cpp:148] Top shape: 100 500 (50000)
I0429 22:18:23.062883 15532 net.cpp:156] Memory required for data: 7874800
I0429 22:18:23.062897 15532 layer_factory.hpp:77] Creating layer relu1
I0429 22:18:23.062911 15532 net.cpp:91] Creating Layer relu1
I0429 22:18:23.062916 15532 net.cpp:425] relu1 <- ip1
I0429 22:18:23.062923 15532 net.cpp:386] relu1 -> ip1 (in-place)
I0429 22:18:23.063359 15532 net.cpp:141] Setting up relu1
I0429 22:18:23.063379 15532 net.cpp:148] Top shape: 100 500 (50000)
I0429 22:18:23.063383 15532 net.cpp:156] Memory required for data: 8074800
I0429 22:18:23.063390 15532 layer_factory.hpp:77] Creating layer ip2
I0429 22:18:23.063405 15532 net.cpp:91] Creating Layer ip2
I0429 22:18:23.063411 15532 net.cpp:425] ip2 <- ip1
I0429 22:18:23.063422 15532 net.cpp:399] ip2 -> ip2
I0429 22:18:23.063635 15532 net.cpp:141] Setting up ip2
I0429 22:18:23.063649 15532 net.cpp:148] Top shape: 100 10 (1000)
I0429 22:18:23.063654 15532 net.cpp:156] Memory required for data: 8078800
I0429 22:18:23.063664 15532 layer_factory.hpp:77] Creating layer ip2_ip2_0_split
I0429 22:18:23.063673 15532 net.cpp:91] Creating Layer ip2_ip2_0_split
I0429 22:18:23.063683 15532 net.cpp:425] ip2_ip2_0_split <- ip2
I0429 22:18:23.063689 15532 net.cpp:399] ip2_ip2_0_split -> ip2_ip2_0_split_0
I0429 22:18:23.063699 15532 net.cpp:399] ip2_ip2_0_split -> ip2_ip2_0_split_1
I0429 22:18:23.063757 15532 net.cpp:141] Setting up ip2_ip2_0_split
I0429 22:18:23.063769 15532 net.cpp:148] Top shape: 100 10 (1000)
I0429 22:18:23.063776 15532 net.cpp:148] Top shape: 100 10 (1000)
I0429 22:18:23.063781 15532 net.cpp:156] Memory required for data: 8086800
I0429 22:18:23.063786 15532 layer_factory.hpp:77] Creating layer accuracy
I0429 22:18:23.063802 15532 net.cpp:91] Creating Layer accuracy
I0429 22:18:23.063810 15532 net.cpp:425] accuracy <- ip2_ip2_0_split_0
I0429 22:18:23.063817 15532 net.cpp:425] accuracy <- label_mnist_1_split_0
I0429 22:18:23.063824 15532 net.cpp:399] accuracy -> accuracy
…
