…
I0429 22:22:30.932198 15730 net.cpp:313] The NetState phase (0) differed from the phase (1) specified by a rule in layer mnist
I0429 22:22:30.932222 15730 net.cpp:313] The NetState phase (0) differed from the phase (1) specified by a rule in layer accuracy
I0429 22:22:30.932348 15730 net.cpp:49] Initializing net from parameters: 
name: "LeNet"
state {
  phase: TRAIN
}
layer {
  name: "mnist"
  type: "Data"
  top: "data"
  top: "label"
  include {
    phase: TRAIN
  }
  transform_param {
    scale: 0.00390625
  }
  data_param {
    source: "examples/mnist/mnist_train_lmdb"
    batch_size: 64
    backend: LMDB
  }
}
layer {
  name: "conv1"
  type: "Convolution"
  bottom: "data"
  top: "conv1"
  param {
    lr_mult: 1
  }
  param {
    lr_mult: 2
  }
  convolution_param {
    num_output: 20
    kernel_size: 5
    stride: 1
    weight_filler {
      type: "xavier"
    }
    bias_filler {
      type: "constant"
    }
  }
}
layer {
  name: "pool1"
  type: "Pooling"
  bottom: "conv1"
  top: "pool1"
  pooling_param {
    pool: MAX
    kernel_size: 2
    stride: 2
  }
}
layer {
  name: "conv2"
  type: "Convolution"
  bottom: "pool1"
  top: "conv2"
  param {
    lr_mult: 1
  }
  param {
    lr_mult: 2
  }
  convolution_param {
    num_output: 50
    kernel_size: 5
    stride: 1
    weight_filler {
      type: "xavier"
    }
    bias_filler {
      type: "constant"
    }
  }
}
layer {
  name: "pool2"
  type: "Pooling"
  bottom: "conv2"
  top: "pool2"
  pooling_param {
    pool: MAX
    kernel_size: 2
    stride: 2
  }
}
layer {
  name: "ip1"
  type: "InnerProduct"
  bottom: "pool2"
  top: "ip1"
  param {
    lr_mult: 1
  }
  param {
    lr_mult: 2
  }
  inner_product_param {
    num_output: 500
    weight_filler {
      type: "xavier"
    }
    bias_filler {
      type: "constant"
    }
  }
}
layer {
  name: "relu1"
  type: "ReLU"
  bottom: "ip1"
  top: "ip1"
}
layer {
  name: "ip2"
  type: "InnerProduct"
  bottom: "ip1"
  top: "ip2"
  param {
    lr_mult: 1
  }
  param {
    lr_mult: 2
  }
  inner_product_param {
    num_output: 10
    weight_filler {
      type: "xavier"
    }
    bias_filler {
      type: "constant"
    }
  }
}
layer {
  name: "loss"
  type: "SoftmaxWithLoss"
  bottom: "ip2"
  bottom: "label"
  top: "loss"
}
I0429 22:22:30.932473 15730 layer_factory.hpp:77] Creating layer mnist
I0429 22:22:30.933233 15730 net.cpp:91] Creating Layer mnist
I0429 22:22:30.933316 15730 net.cpp:399] mnist -> data
I0429 22:22:30.933411 15730 net.cpp:399] mnist -> label
I0429 22:22:30.935564 15737 db_lmdb.cpp:35] Opened lmdb examples/mnist/mnist_train_lmdb
I0429 22:22:30.950151 15730 data_layer.cpp:41] output data size: 64,1,28,28
I0429 22:22:30.951822 15730 net.cpp:141] Setting up mnist
I0429 22:22:30.951858 15730 net.cpp:148] Top shape: 64 1 28 28 (50176)
I0429 22:22:30.951869 15730 net.cpp:148] Top shape: 64 (64)
I0429 22:22:30.951874 15730 net.cpp:156] Memory required for data: 200960
I0429 22:22:30.951887 15730 layer_factory.hpp:77] Creating layer conv1
I0429 22:22:30.951932 15730 net.cpp:91] Creating Layer conv1
I0429 22:22:30.951946 15730 net.cpp:425] conv1 <- data
I0429 22:22:30.951962 15730 net.cpp:399] conv1 -> conv1
I0429 22:22:30.954427 15738 blocking_queue.cpp:50] Waiting for data
I0429 22:22:31.181519 15730 net.cpp:141] Setting up conv1
I0429 22:22:31.181572 15730 net.cpp:148] Top shape: 64 20 24 24 (737280)
I0429 22:22:31.181651 15730 net.cpp:156] Memory required for data: 3150080
I0429 22:22:31.181691 15730 layer_factory.hpp:77] Creating layer pool1
I0429 22:22:31.181722 15730 net.cpp:91] Creating Layer pool1
I0429 22:22:31.181735 15730 net.cpp:425] pool1 <- conv1
I0429 22:22:31.181746 15730 net.cpp:399] pool1 -> pool1
I0429 22:22:31.181835 15730 net.cpp:141] Setting up pool1
I0429 22:22:31.181849 15730 net.cpp:148] Top shape: 64 20 12 12 (184320)
I0429 22:22:31.181854 15730 net.cpp:156] Memory required for data: 3887360
I0429 22:22:31.181860 15730 layer_factory.hpp:77] Creating layer conv2
I0429 22:22:31.181882 15730 net.cpp:91] Creating Layer conv2
I0429 22:22:31.181890 15730 net.cpp:425] conv2 <- pool1
I0429 22:22:31.181900 15730 net.cpp:399] conv2 -> conv2
I0429 22:22:31.228695 15730 net.cpp:141] Setting up conv2
I0429 22:22:31.228719 15730 net.cpp:148] Top shape: 64 50 8 8 (204800)
I0429 22:22:31.228726 15730 net.cpp:156] Memory required for data: 4706560
I0429 22:22:31.228741 15730 layer_factory.hpp:77] Creating layer pool2
I0429 22:22:31.228755 15730 net.cpp:91] Creating Layer pool2
I0429 22:22:31.228765 15730 net.cpp:425] pool2 <- conv2
I0429 22:22:31.228773 15730 net.cpp:399] pool2 -> pool2
I0429 22:22:31.228840 15730 net.cpp:141] Setting up pool2
I0429 22:22:31.228853 15730 net.cpp:148] Top shape: 64 50 4 4 (51200)
I0429 22:22:31.228858 15730 net.cpp:156] Memory required for data: 4911360
I0429 22:22:31.228863 15730 layer_factory.hpp:77] Creating layer ip1
I0429 22:22:31.228878 15730 net.cpp:91] Creating Layer ip1
I0429 22:22:31.228886 15730 net.cpp:425] ip1 <- pool2
I0429 22:22:31.228895 15730 net.cpp:399] ip1 -> ip1
I0429 22:22:31.245892 15730 net.cpp:141] Setting up ip1
I0429 22:22:31.245916 15730 net.cpp:148] Top shape: 64 500 (32000)
I0429 22:22:31.245923 15730 net.cpp:156] Memory required for data: 5039360
I0429 22:22:31.245937 15730 layer_factory.hpp:77] Creating layer relu1
I0429 22:22:31.245951 15730 net.cpp:91] Creating Layer relu1
I0429 22:22:31.245957 15730 net.cpp:425] relu1 <- ip1
I0429 22:22:31.245965 15730 net.cpp:386] relu1 -> ip1 (in-place)
I0429 22:22:31.246227 15730 net.cpp:141] Setting up relu1
I0429 22:22:31.246243 15730 net.cpp:148] Top shape: 64 500 (32000)
I0429 22:22:31.246248 15730 net.cpp:156] Memory required for data: 5167360
I0429 22:22:31.246253 15730 layer_factory.hpp:77] Creating layer ip2
I0429 22:22:31.246265 15730 net.cpp:91] Creating Layer ip2
I0429 22:22:31.246274 15730 net.cpp:425] ip2 <- ip1
I0429 22:22:31.246282 15730 net.cpp:399] ip2 -> ip2
I0429 22:22:31.247462 15730 net.cpp:141] Setting up ip2
I0429 22:22:31.247480 15730 net.cpp:148] Top shape: 64 10 (640)
I0429 22:22:31.247485 15730 net.cpp:156] Memory required for data: 5169920
I0429 22:22:31.247496 15730 layer_factory.hpp:77] Creating layer loss
I0429 22:22:31.247514 15730 net.cpp:91] Creating Layer loss
I0429 22:22:31.247531 15730 net.cpp:425] loss <- ip2
I0429 22:22:31.247539 15730 net.cpp:425] loss <- label
I0429 22:22:31.247548 15730 net.cpp:399] loss -> loss
I0429 22:22:31.247576 15730 layer_factory.hpp:77] Creating layer loss
…
I0429 22:22:31.248847 15730 solver.cpp:181] Creating test net (#0) specified by net file: examples/mnist/lenet_train_test.prototxt
I0429 22:22:31.248891 15730 net.cpp:313] The NetState phase (1) differed from the phase (0) specified by a rule in layer mnist
I0429 22:22:31.249025 15730 net.cpp:49] Initializing net from parameters: 
name: "LeNet"
state {
  phase: TEST
}
layer {
  name: "mnist"
  type: "Data"
  top: "data"
  top: "label"
  include {
    phase: TEST
  }
  transform_param {
    scale: 0.00390625
  }
  data_param {
    source: "examples/mnist/mnist_test_lmdb"
    batch_size: 100
    backend: LMDB
  }
}
layer {
  name: "conv1"
  type: "Convolution"
  bottom: "data"
  top: "conv1"
  param {
    lr_mult: 1
  }
  param {
    lr_mult: 2
  }
  convolution_param {
    num_output: 20
    kernel_size: 5
    stride: 1
    weight_filler {
      type: "xavier"
    }
    bias_filler {
      type: "constant"
    }
  }
}
layer {
  name: "pool1"
  type: "Pooling"
  bottom: "conv1"
  top: "pool1"
  pooling_param {
    pool: MAX
    kernel_size: 2
    stride: 2
  }
}
layer {
  name: "conv2"
  type: "Convolution"
  bottom: "pool1"
  top: "conv2"
  param {
    lr_mult: 1
  }
  param {
    lr_mult: 2
  }
  convolution_param {
    num_output: 50
    kernel_size: 5
    stride: 1
    weight_filler {
      type: "xavier"
    }
    bias_filler {
      type: "constant"
    }
  }
}
layer {
  name: "pool2"
  type: "Pooling"
  bottom: "conv2"
  top: "pool2"
  pooling_param {
    pool: MAX
    kernel_size: 2
    stride: 2
  }
}
layer {
  name: "ip1"
  type: "InnerProduct"
  bottom: "pool2"
  top: "ip1"
  param {
    lr_mult: 1
  }
  param {
    lr_mult: 2
  }
  inner_product_param {
    num_output: 500
    weight_filler {
      type: "xavier"
    }
    bias_filler {
      type: "constant"
    }
  }
}
layer {
  name: "relu1"
  type: "ReLU"
  bottom: "ip1"
  top: "ip1"
}
layer {
  name: "ip2"
  type: "InnerProduct"
  bottom: "ip1"
  top: "ip2"
  param {
    lr_mult: 1
  }
  param {
    lr_mult: 2
  }
  inner_product_param {
    num_output: 10
    weight_filler {
      type: "xavier"
    }
    bias_filler {
      type: "constant"
    }
  }
}
layer {
  name: "accuracy"
  type: "Accuracy"
  bottom: "ip2"
  bottom: "label"
  top: "accuracy"
  include {
    phase: TEST
  }
}
layer {
  name: "loss"
  type: "SoftmaxWithLoss"
  bottom: "ip2"
  bottom: "label"
  top: "loss"
}
I0429 22:22:31.249135 15730 layer_factory.hpp:77] Creating layer mnist
I0429 22:22:31.249305 15730 net.cpp:91] Creating Layer mnist
I0429 22:22:31.249317 15730 net.cpp:399] mnist -> data
I0429 22:22:31.249330 15730 net.cpp:399] mnist -> label
I0429 22:22:31.251507 15739 db_lmdb.cpp:35] Opened lmdb examples/mnist/mnist_test_lmdb
I0429 22:22:31.251765 15730 data_layer.cpp:41] output data size: 100,1,28,28
I0429 22:22:31.253702 15730 net.cpp:141] Setting up mnist
I0429 22:22:31.253722 15730 net.cpp:148] Top shape: 100 1 28 28 (78400)
I0429 22:22:31.253731 15730 net.cpp:148] Top shape: 100 (100)
I0429 22:22:31.253736 15730 net.cpp:156] Memory required for data: 314000
I0429 22:22:31.253742 15730 layer_factory.hpp:77] Creating layer label_mnist_1_split
I0429 22:22:31.253758 15730 net.cpp:91] Creating Layer label_mnist_1_split
I0429 22:22:31.253764 15730 net.cpp:425] label_mnist_1_split <- label
I0429 22:22:31.253772 15730 net.cpp:399] label_mnist_1_split -> label_mnist_1_split_0
I0429 22:22:31.253784 15730 net.cpp:399] label_mnist_1_split -> label_mnist_1_split_1
I0429 22:22:31.253916 15730 net.cpp:141] Setting up label_mnist_1_split
I0429 22:22:31.253931 15730 net.cpp:148] Top shape: 100 (100)
I0429 22:22:31.253937 15730 net.cpp:148] Top shape: 100 (100)
I0429 22:22:31.253942 15730 net.cpp:156] Memory required for data: 314800
I0429 22:22:31.253947 15730 layer_factory.hpp:77] Creating layer conv1
I0429 22:22:31.253962 15730 net.cpp:91] Creating Layer conv1
I0429 22:22:31.253968 15730 net.cpp:425] conv1 <- data
I0429 22:22:31.253978 15730 net.cpp:399] conv1 -> conv1
I0429 22:22:31.255800 15730 net.cpp:141] Setting up conv1
I0429 22:22:31.255848 15730 net.cpp:148] Top shape: 100 20 24 24 (1152000)
I0429 22:22:31.255856 15730 net.cpp:156] Memory required for data: 4922800
I0429 22:22:31.255870 15730 layer_factory.hpp:77] Creating layer pool1
I0429 22:22:31.255882 15730 net.cpp:91] Creating Layer pool1
I0429 22:22:31.255887 15730 net.cpp:425] pool1 <- conv1
I0429 22:22:31.255895 15730 net.cpp:399] pool1 -> pool1
I0429 22:22:31.255954 15730 net.cpp:141] Setting up pool1
I0429 22:22:31.255967 15730 net.cpp:148] Top shape: 100 20 12 12 (288000)
I0429 22:22:31.255972 15730 net.cpp:156] Memory required for data: 6074800
I0429 22:22:31.255977 15730 layer_factory.hpp:77] Creating layer conv2
I0429 22:22:31.255991 15730 net.cpp:91] Creating Layer conv2
I0429 22:22:31.255997 15730 net.cpp:425] conv2 <- pool1
I0429 22:22:31.256006 15730 net.cpp:399] conv2 -> conv2
I0429 22:22:31.257802 15730 net.cpp:141] Setting up conv2
I0429 22:22:31.257822 15730 net.cpp:148] Top shape: 100 50 8 8 (320000)
I0429 22:22:31.257828 15730 net.cpp:156] Memory required for data: 7354800
I0429 22:22:31.257843 15730 layer_factory.hpp:77] Creating layer pool2
I0429 22:22:31.257853 15730 net.cpp:91] Creating Layer pool2
I0429 22:22:31.257864 15730 net.cpp:425] pool2 <- conv2
I0429 22:22:31.257874 15730 net.cpp:399] pool2 -> pool2
I0429 22:22:31.257931 15730 net.cpp:141] Setting up pool2
I0429 22:22:31.257946 15730 net.cpp:148] Top shape: 100 50 4 4 (80000)
I0429 22:22:31.257951 15730 net.cpp:156] Memory required for data: 7674800
I0429 22:22:31.257961 15730 layer_factory.hpp:77] Creating layer ip1
I0429 22:22:31.257971 15730 net.cpp:91] Creating Layer ip1
I0429 22:22:31.257975 15730 net.cpp:425] ip1 <- pool2
I0429 22:22:31.257985 15730 net.cpp:399] ip1 -> ip1
I0429 22:22:31.263559 15730 net.cpp:141] Setting up ip1
I0429 22:22:31.263581 15730 net.cpp:148] Top shape: 100 500 (50000)
I0429 22:22:31.263586 15730 net.cpp:156] Memory required for data: 7874800
I0429 22:22:31.263598 15730 layer_factory.hpp:77] Creating layer relu1
I0429 22:22:31.263607 15730 net.cpp:91] Creating Layer relu1
I0429 22:22:31.263614 15730 net.cpp:425] relu1 <- ip1
I0429 22:22:31.263622 15730 net.cpp:386] relu1 -> ip1 (in-place)
I0429 22:22:31.264066 15730 net.cpp:141] Setting up relu1
I0429 22:22:31.264086 15730 net.cpp:148] Top shape: 100 500 (50000)
I0429 22:22:31.264091 15730 net.cpp:156] Memory required for data: 8074800
I0429 22:22:31.264096 15730 layer_factory.hpp:77] Creating layer ip2
I0429 22:22:31.264111 15730 net.cpp:91] Creating Layer ip2
I0429 22:22:31.264117 15730 net.cpp:425] ip2 <- ip1
I0429 22:22:31.264125 15730 net.cpp:399] ip2 -> ip2
I0429 22:22:31.264333 15730 net.cpp:141] Setting up ip2
I0429 22:22:31.264348 15730 net.cpp:148] Top shape: 100 10 (1000)
I0429 22:22:31.264351 15730 net.cpp:156] Memory required for data: 8078800
I0429 22:22:31.264361 15730 layer_factory.hpp:77] Creating layer ip2_ip2_0_split
I0429 22:22:31.264369 15730 net.cpp:91] Creating Layer ip2_ip2_0_split
I0429 22:22:31.264374 15730 net.cpp:425] ip2_ip2_0_split <- ip2
I0429 22:22:31.264381 15730 net.cpp:399] ip2_ip2_0_split -> ip2_ip2_0_split_0
I0429 22:22:31.264390 15730 net.cpp:399] ip2_ip2_0_split -> ip2_ip2_0_split_1
I0429 22:22:31.264446 15730 net.cpp:141] Setting up ip2_ip2_0_split
I0429 22:22:31.264458 15730 net.cpp:148] Top shape: 100 10 (1000)
I0429 22:22:31.264464 15730 net.cpp:148] Top shape: 100 10 (1000)
I0429 22:22:31.264468 15730 net.cpp:156] Memory required for data: 8086800
I0429 22:22:31.264473 15730 layer_factory.hpp:77] Creating layer accuracy
I0429 22:22:31.264487 15730 net.cpp:91] Creating Layer accuracy
I0429 22:22:31.264492 15730 net.cpp:425] accuracy <- ip2_ip2_0_split_0
I0429 22:22:31.264498 15730 net.cpp:425] accuracy <- label_mnist_1_split_0
I0429 22:22:31.264508 15730 net.cpp:399] accuracy -> accuracy
…
