…
I0429 22:33:33.711107 16166 net.cpp:313] The NetState phase (0) differed from the phase (1) specified by a rule in layer mnist
I0429 22:33:33.711136 16166 net.cpp:313] The NetState phase (0) differed from the phase (1) specified by a rule in layer accuracy
I0429 22:33:33.711256 16166 net.cpp:49] Initializing net from parameters: 
name: "LeNet"
state {
  phase: TRAIN
}
layer {
  name: "mnist"
  type: "Data"
  top: "data"
  top: "label"
  include {
    phase: TRAIN
  }
  transform_param {
    scale: 0.00390625
  }
  data_param {
    source: "examples/mnist/mnist_train_lmdb"
    batch_size: 256
    backend: LMDB
  }
}
layer {
  name: "conv1"
  type: "Convolution"
  bottom: "data"
  top: "conv1"
  param {
    lr_mult: 1
  }
  param {
    lr_mult: 2
  }
  convolution_param {
    num_output: 20
    kernel_size: 5
    stride: 1
    weight_filler {
      type: "xavier"
    }
    bias_filler {
      type: "constant"
    }
  }
}
layer {
  name: "pool1"
  type: "Pooling"
  bottom: "conv1"
  top: "pool1"
  pooling_param {
    pool: MAX
    kernel_size: 2
    stride: 2
  }
}
layer {
  name: "conv2"
  type: "Convolution"
  bottom: "pool1"
  top: "conv2"
  param {
    lr_mult: 1
  }
  param {
    lr_mult: 2
  }
  convolution_param {
    num_output: 50
    kernel_size: 5
    stride: 1
    weight_filler {
      type: "xavier"
    }
    bias_filler {
      type: "constant"
    }
  }
}
layer {
  name: "pool2"
  type: "Pooling"
  bottom: "conv2"
  top: "pool2"
  pooling_param {
    pool: MAX
    kernel_size: 2
    stride: 2
  }
}
layer {
  name: "ip1"
  type: "InnerProduct"
  bottom: "pool2"
  top: "ip1"
  param {
    lr_mult: 1
  }
  param {
    lr_mult: 2
  }
  inner_product_param {
    num_output: 500
    weight_filler {
      type: "xavier"
    }
    bias_filler {
      type: "constant"
    }
  }
}
layer {
  name: "relu1"
  type: "ReLU"
  bottom: "ip1"
  top: "ip1"
}
layer {
  name: "ip2"
  type: "InnerProduct"
  bottom: "ip1"
  top: "ip2"
  param {
    lr_mult: 1
  }
  param {
    lr_mult: 2
  }
  inner_product_param {
    num_output: 10
    weight_filler {
      type: "xavier"
    }
    bias_filler {
      type: "constant"
    }
  }
}
layer {
  name: "loss"
  type: "SoftmaxWithLoss"
  bottom: "ip2"
  bottom: "label"
  top: "loss"
}
I0429 22:33:33.711380 16166 layer_factory.hpp:77] Creating layer mnist
I0429 22:33:33.712303 16166 net.cpp:91] Creating Layer mnist
I0429 22:33:33.712357 16166 net.cpp:399] mnist -> data
I0429 22:33:33.712419 16166 net.cpp:399] mnist -> label
I0429 22:33:33.714429 16170 db_lmdb.cpp:35] Opened lmdb examples/mnist/mnist_train_lmdb
I0429 22:33:33.729532 16166 data_layer.cpp:41] output data size: 256,1,28,28
I0429 22:33:33.733914 16166 net.cpp:141] Setting up mnist
I0429 22:33:33.733949 16166 net.cpp:148] Top shape: 256 1 28 28 (200704)
I0429 22:33:33.733961 16166 net.cpp:148] Top shape: 256 (256)
I0429 22:33:33.733966 16166 net.cpp:156] Memory required for data: 803840
I0429 22:33:33.733979 16166 layer_factory.hpp:77] Creating layer conv1
I0429 22:33:33.734017 16166 net.cpp:91] Creating Layer conv1
I0429 22:33:33.734027 16166 net.cpp:425] conv1 <- data
I0429 22:33:33.734043 16166 net.cpp:399] conv1 -> conv1
I0429 22:33:33.944164 16166 net.cpp:141] Setting up conv1
I0429 22:33:33.944214 16166 net.cpp:148] Top shape: 256 20 24 24 (2949120)
I0429 22:33:33.944221 16166 net.cpp:156] Memory required for data: 12600320
I0429 22:33:33.944252 16166 layer_factory.hpp:77] Creating layer pool1
I0429 22:33:33.944279 16166 net.cpp:91] Creating Layer pool1
I0429 22:33:33.944288 16166 net.cpp:425] pool1 <- conv1
I0429 22:33:33.944370 16166 net.cpp:399] pool1 -> pool1
I0429 22:33:33.944454 16166 net.cpp:141] Setting up pool1
I0429 22:33:33.944469 16166 net.cpp:148] Top shape: 256 20 12 12 (737280)
I0429 22:33:33.944474 16166 net.cpp:156] Memory required for data: 15549440
I0429 22:33:33.944480 16166 layer_factory.hpp:77] Creating layer conv2
I0429 22:33:33.944501 16166 net.cpp:91] Creating Layer conv2
I0429 22:33:33.944507 16166 net.cpp:425] conv2 <- pool1
I0429 22:33:33.944515 16166 net.cpp:399] conv2 -> conv2
I0429 22:33:33.947002 16166 net.cpp:141] Setting up conv2
I0429 22:33:33.947024 16166 net.cpp:148] Top shape: 256 50 8 8 (819200)
I0429 22:33:33.947031 16166 net.cpp:156] Memory required for data: 18826240
I0429 22:33:33.947044 16166 layer_factory.hpp:77] Creating layer pool2
I0429 22:33:33.947055 16166 net.cpp:91] Creating Layer pool2
I0429 22:33:33.947062 16166 net.cpp:425] pool2 <- conv2
I0429 22:33:33.947069 16166 net.cpp:399] pool2 -> pool2
I0429 22:33:33.947121 16166 net.cpp:141] Setting up pool2
I0429 22:33:33.947131 16166 net.cpp:148] Top shape: 256 50 4 4 (204800)
I0429 22:33:33.947136 16166 net.cpp:156] Memory required for data: 19645440
I0429 22:33:33.947141 16166 layer_factory.hpp:77] Creating layer ip1
I0429 22:33:33.947152 16166 net.cpp:91] Creating Layer ip1
I0429 22:33:33.947157 16166 net.cpp:425] ip1 <- pool2
I0429 22:33:33.947165 16166 net.cpp:399] ip1 -> ip1
I0429 22:33:33.952507 16166 net.cpp:141] Setting up ip1
I0429 22:33:33.952527 16166 net.cpp:148] Top shape: 256 500 (128000)
I0429 22:33:33.952533 16166 net.cpp:156] Memory required for data: 20157440
I0429 22:33:33.952546 16166 layer_factory.hpp:77] Creating layer relu1
I0429 22:33:33.952561 16166 net.cpp:91] Creating Layer relu1
I0429 22:33:33.952567 16166 net.cpp:425] relu1 <- ip1
I0429 22:33:33.952575 16166 net.cpp:386] relu1 -> ip1 (in-place)
I0429 22:33:33.952841 16166 net.cpp:141] Setting up relu1
I0429 22:33:33.952862 16166 net.cpp:148] Top shape: 256 500 (128000)
I0429 22:33:33.952867 16166 net.cpp:156] Memory required for data: 20669440
I0429 22:33:33.952872 16166 layer_factory.hpp:77] Creating layer ip2
I0429 22:33:33.952883 16166 net.cpp:91] Creating Layer ip2
I0429 22:33:33.952888 16166 net.cpp:425] ip2 <- ip1
I0429 22:33:33.952898 16166 net.cpp:399] ip2 -> ip2
I0429 22:33:33.953963 16166 net.cpp:141] Setting up ip2
I0429 22:33:33.953981 16166 net.cpp:148] Top shape: 256 10 (2560)
I0429 22:33:33.953986 16166 net.cpp:156] Memory required for data: 20679680
I0429 22:33:33.953995 16166 layer_factory.hpp:77] Creating layer loss
I0429 22:33:33.954015 16166 net.cpp:91] Creating Layer loss
I0429 22:33:33.954020 16166 net.cpp:425] loss <- ip2
I0429 22:33:33.954027 16166 net.cpp:425] loss <- label
I0429 22:33:33.954036 16166 net.cpp:399] loss -> loss
I0429 22:33:33.954063 16166 layer_factory.hpp:77] Creating layer loss
…
I0429 22:33:33.956053 16166 solver.cpp:181] Creating test net (#0) specified by net file: examples/mnist/lenet_train_test.prototxt
I0429 22:33:33.956096 16166 net.cpp:313] The NetState phase (1) differed from the phase (0) specified by a rule in layer mnist
I0429 22:33:33.956276 16166 net.cpp:49] Initializing net from parameters: 
name: "LeNet"
state {
  phase: TEST
}
layer {
  name: "mnist"
  type: "Data"
  top: "data"
  top: "label"
  include {
    phase: TEST
  }
  transform_param {
    scale: 0.00390625
  }
  data_param {
    source: "examples/mnist/mnist_test_lmdb"
    batch_size: 100
    backend: LMDB
  }
}
layer {
  name: "conv1"
  type: "Convolution"
  bottom: "data"
  top: "conv1"
  param {
    lr_mult: 1
  }
  param {
    lr_mult: 2
  }
  convolution_param {
    num_output: 20
    kernel_size: 5
    stride: 1
    weight_filler {
      type: "xavier"
    }
    bias_filler {
      type: "constant"
    }
  }
}
layer {
  name: "pool1"
  type: "Pooling"
  bottom: "conv1"
  top: "pool1"
  pooling_param {
    pool: MAX
    kernel_size: 2
    stride: 2
  }
}
layer {
  name: "conv2"
  type: "Convolution"
  bottom: "pool1"
  top: "conv2"
  param {
    lr_mult: 1
  }
  param {
    lr_mult: 2
  }
  convolution_param {
    num_output: 50
    kernel_size: 5
    stride: 1
    weight_filler {
      type: "xavier"
    }
    bias_filler {
      type: "constant"
    }
  }
}
layer {
  name: "pool2"
  type: "Pooling"
  bottom: "conv2"
  top: "pool2"
  pooling_param {
    pool: MAX
    kernel_size: 2
    stride: 2
  }
}
layer {
  name: "ip1"
  type: "InnerProduct"
  bottom: "pool2"
  top: "ip1"
  param {
    lr_mult: 1
  }
  param {
    lr_mult: 2
  }
  inner_product_param {
    num_output: 500
    weight_filler {
      type: "xavier"
    }
    bias_filler {
      type: "constant"
    }
  }
}
layer {
  name: "relu1"
  type: "ReLU"
  bottom: "ip1"
  top: "ip1"
}
layer {
  name: "ip2"
  type: "InnerProduct"
  bottom: "ip1"
  top: "ip2"
  param {
    lr_mult: 1
  }
  param {
    lr_mult: 2
  }
  inner_product_param {
    num_output: 10
    weight_filler {
      type: "xavier"
    }
    bias_filler {
      type: "constant"
    }
  }
}
layer {
  name: "accuracy"
  type: "Accuracy"
  bottom: "ip2"
  bottom: "label"
  top: "accuracy"
  include {
    phase: TEST
  }
}
layer {
  name: "loss"
  type: "SoftmaxWithLoss"
  bottom: "ip2"
  bottom: "label"
  top: "loss"
}
I0429 22:33:33.956389 16166 layer_factory.hpp:77] Creating layer mnist
I0429 22:33:33.956569 16166 net.cpp:91] Creating Layer mnist
I0429 22:33:33.956583 16166 net.cpp:399] mnist -> data
I0429 22:33:33.956595 16166 net.cpp:399] mnist -> label
I0429 22:33:33.960918 16172 db_lmdb.cpp:35] Opened lmdb examples/mnist/mnist_test_lmdb
I0429 22:33:33.961122 16166 data_layer.cpp:41] output data size: 100,1,28,28
I0429 22:33:33.963932 16166 net.cpp:141] Setting up mnist
I0429 22:33:33.963949 16166 net.cpp:148] Top shape: 100 1 28 28 (78400)
I0429 22:33:33.963956 16166 net.cpp:148] Top shape: 100 (100)
I0429 22:33:33.963961 16166 net.cpp:156] Memory required for data: 314000
I0429 22:33:33.963966 16166 layer_factory.hpp:77] Creating layer label_mnist_1_split
I0429 22:33:33.964071 16166 net.cpp:91] Creating Layer label_mnist_1_split
I0429 22:33:33.964082 16166 net.cpp:425] label_mnist_1_split <- label
I0429 22:33:33.964093 16166 net.cpp:399] label_mnist_1_split -> label_mnist_1_split_0
I0429 22:33:33.964104 16166 net.cpp:399] label_mnist_1_split -> label_mnist_1_split_1
I0429 22:33:33.964237 16166 net.cpp:141] Setting up label_mnist_1_split
I0429 22:33:33.964251 16166 net.cpp:148] Top shape: 100 (100)
I0429 22:33:33.964257 16166 net.cpp:148] Top shape: 100 (100)
I0429 22:33:33.964262 16166 net.cpp:156] Memory required for data: 314800
I0429 22:33:33.964267 16166 layer_factory.hpp:77] Creating layer conv1
I0429 22:33:33.964292 16166 net.cpp:91] Creating Layer conv1
I0429 22:33:33.964301 16166 net.cpp:425] conv1 <- data
I0429 22:33:33.964311 16166 net.cpp:399] conv1 -> conv1
I0429 22:33:33.966954 16166 net.cpp:141] Setting up conv1
I0429 22:33:33.966980 16166 net.cpp:148] Top shape: 100 20 24 24 (1152000)
I0429 22:33:33.966986 16166 net.cpp:156] Memory required for data: 4922800
I0429 22:33:33.967003 16166 layer_factory.hpp:77] Creating layer pool1
I0429 22:33:33.967049 16166 net.cpp:91] Creating Layer pool1
I0429 22:33:33.967056 16166 net.cpp:425] pool1 <- conv1
I0429 22:33:33.967068 16166 net.cpp:399] pool1 -> pool1
I0429 22:33:33.967133 16166 net.cpp:141] Setting up pool1
I0429 22:33:33.967146 16166 net.cpp:148] Top shape: 100 20 12 12 (288000)
I0429 22:33:33.967150 16166 net.cpp:156] Memory required for data: 6074800
I0429 22:33:33.967155 16166 layer_factory.hpp:77] Creating layer conv2
I0429 22:33:33.967176 16166 net.cpp:91] Creating Layer conv2
I0429 22:33:33.967182 16166 net.cpp:425] conv2 <- pool1
I0429 22:33:33.967190 16166 net.cpp:399] conv2 -> conv2
I0429 22:33:33.971246 16166 net.cpp:141] Setting up conv2
I0429 22:33:33.971271 16166 net.cpp:148] Top shape: 100 50 8 8 (320000)
I0429 22:33:33.971276 16166 net.cpp:156] Memory required for data: 7354800
I0429 22:33:33.971305 16166 layer_factory.hpp:77] Creating layer pool2
I0429 22:33:33.971320 16166 net.cpp:91] Creating Layer pool2
I0429 22:33:33.971326 16166 net.cpp:425] pool2 <- conv2
I0429 22:33:33.971334 16166 net.cpp:399] pool2 -> pool2
I0429 22:33:33.971449 16166 net.cpp:141] Setting up pool2
I0429 22:33:33.971464 16166 net.cpp:148] Top shape: 100 50 4 4 (80000)
I0429 22:33:33.971469 16166 net.cpp:156] Memory required for data: 7674800
I0429 22:33:33.971474 16166 layer_factory.hpp:77] Creating layer ip1
I0429 22:33:33.971484 16166 net.cpp:91] Creating Layer ip1
I0429 22:33:33.971489 16166 net.cpp:425] ip1 <- pool2
I0429 22:33:33.971503 16166 net.cpp:399] ip1 -> ip1
I0429 22:33:33.977469 16166 net.cpp:141] Setting up ip1
I0429 22:33:33.977489 16166 net.cpp:148] Top shape: 100 500 (50000)
I0429 22:33:33.977494 16166 net.cpp:156] Memory required for data: 7874800
I0429 22:33:33.977509 16166 layer_factory.hpp:77] Creating layer relu1
I0429 22:33:33.977517 16166 net.cpp:91] Creating Layer relu1
I0429 22:33:33.977524 16166 net.cpp:425] relu1 <- ip1
I0429 22:33:33.977530 16166 net.cpp:386] relu1 -> ip1 (in-place)
I0429 22:33:33.978409 16166 net.cpp:141] Setting up relu1
I0429 22:33:33.978436 16166 net.cpp:148] Top shape: 100 500 (50000)
I0429 22:33:33.978442 16166 net.cpp:156] Memory required for data: 8074800
I0429 22:33:33.978452 16166 layer_factory.hpp:77] Creating layer ip2
I0429 22:33:33.978477 16166 net.cpp:91] Creating Layer ip2
I0429 22:33:33.978485 16166 net.cpp:425] ip2 <- ip1
I0429 22:33:33.978502 16166 net.cpp:399] ip2 -> ip2
I0429 22:33:33.978785 16166 net.cpp:141] Setting up ip2
I0429 22:33:33.978801 16166 net.cpp:148] Top shape: 100 10 (1000)
I0429 22:33:33.978806 16166 net.cpp:156] Memory required for data: 8078800
I0429 22:33:33.978817 16166 layer_factory.hpp:77] Creating layer ip2_ip2_0_split
I0429 22:33:33.978828 16166 net.cpp:91] Creating Layer ip2_ip2_0_split
I0429 22:33:33.978837 16166 net.cpp:425] ip2_ip2_0_split <- ip2
I0429 22:33:33.978849 16166 net.cpp:399] ip2_ip2_0_split -> ip2_ip2_0_split_0
I0429 22:33:33.978859 16166 net.cpp:399] ip2_ip2_0_split -> ip2_ip2_0_split_1
I0429 22:33:33.978916 16166 net.cpp:141] Setting up ip2_ip2_0_split
I0429 22:33:33.978929 16166 net.cpp:148] Top shape: 100 10 (1000)
I0429 22:33:33.978935 16166 net.cpp:148] Top shape: 100 10 (1000)
I0429 22:33:33.978940 16166 net.cpp:156] Memory required for data: 8086800
I0429 22:33:33.978945 16166 layer_factory.hpp:77] Creating layer accuracy
I0429 22:33:33.978960 16166 net.cpp:91] Creating Layer accuracy
I0429 22:33:33.978966 16166 net.cpp:425] accuracy <- ip2_ip2_0_split_0
I0429 22:33:33.978973 16166 net.cpp:425] accuracy <- label_mnist_1_split_0
I0429 22:33:33.978981 16166 net.cpp:399] accuracy -> accuracy
…
