…
I0429 22:38:08.403265 16316 net.cpp:313] The NetState phase (0) differed from the phase (1) specified by a rule in layer mnist
I0429 22:38:08.403317 16316 net.cpp:313] The NetState phase (0) differed from the phase (1) specified by a rule in layer accuracy
I0429 22:38:08.403482 16316 net.cpp:49] Initializing net from parameters: 
name: "LeNet"
state {
  phase: TRAIN
}
layer {
  name: "mnist"
  type: "Data"
  top: "data"
  top: "label"
  include {
    phase: TRAIN
  }
  transform_param {
    scale: 0.00390625
  }
  data_param {
    source: "examples/mnist/mnist_train_lmdb"
    batch_size: 128
    backend: LMDB
  }
}
layer {
  name: "conv1"
  type: "Convolution"
  bottom: "data"
  top: "conv1"
  param {
    lr_mult: 1
  }
  param {
    lr_mult: 2
  }
  convolution_param {
    num_output: 20
    kernel_size: 5
    stride: 1
    weight_filler {
      type: "xavier"
    }
    bias_filler {
      type: "constant"
    }
  }
}
layer {
  name: "pool1"
  type: "Pooling"
  bottom: "conv1"
  top: "pool1"
  pooling_param {
    pool: MAX
    kernel_size: 2
    stride: 2
  }
}
layer {
  name: "conv2"
  type: "Convolution"
  bottom: "pool1"
  top: "conv2"
  param {
    lr_mult: 1
  }
  param {
    lr_mult: 2
  }
  convolution_param {
    num_output: 50
    kernel_size: 5
    stride: 1
    weight_filler {
      type: "xavier"
    }
    bias_filler {
      type: "constant"
    }
  }
}
layer {
  name: "pool2"
  type: "Pooling"
  bottom: "conv2"
  top: "pool2"
  pooling_param {
    pool: MAX
    kernel_size: 2
    stride: 2
  }
}
layer {
  name: "ip1"
  type: "InnerProduct"
  bottom: "pool2"
  top: "ip1"
  param {
    lr_mult: 1
  }
  param {
    lr_mult: 2
  }
  inner_product_param {
    num_output: 500
    weight_filler {
      type: "xavier"
    }
    bias_filler {
      type: "constant"
    }
  }
}
layer {
  name: "relu1"
  type: "ReLU"
  bottom: "ip1"
  top: "ip1"
}
layer {
  name: "ip2"
  type: "InnerProduct"
  bottom: "ip1"
  top: "ip2"
  param {
    lr_mult: 1
  }
  param {
    lr_mult: 2
  }
  inner_product_param {
    num_output: 10
    weight_filler {
      type: "xavier"
    }
    bias_filler {
      type: "constant"
    }
  }
}
layer {
  name: "loss"
  type: "SoftmaxWithLoss"
  bottom: "ip2"
  bottom: "label"
  top: "loss"
}
I0429 22:38:08.403614 16316 layer_factory.hpp:77] Creating layer mnist
I0429 22:38:08.404458 16316 net.cpp:91] Creating Layer mnist
I0429 22:38:08.404486 16316 net.cpp:399] mnist -> data
I0429 22:38:08.404654 16316 net.cpp:399] mnist -> label
I0429 22:38:08.406802 16320 db_lmdb.cpp:35] Opened lmdb examples/mnist/mnist_train_lmdb
I0429 22:38:08.421397 16316 data_layer.cpp:41] output data size: 128,1,28,28
I0429 22:38:08.424427 16316 net.cpp:141] Setting up mnist
I0429 22:38:08.424460 16316 net.cpp:148] Top shape: 128 1 28 28 (100352)
I0429 22:38:08.424469 16316 net.cpp:148] Top shape: 128 (128)
I0429 22:38:08.424474 16316 net.cpp:156] Memory required for data: 401920
I0429 22:38:08.424486 16316 layer_factory.hpp:77] Creating layer conv1
I0429 22:38:08.424525 16316 net.cpp:91] Creating Layer conv1
I0429 22:38:08.424536 16316 net.cpp:425] conv1 <- data
I0429 22:38:08.424552 16316 net.cpp:399] conv1 -> conv1
I0429 22:38:08.427278 16321 blocking_queue.cpp:50] Waiting for data
I0429 22:38:08.636742 16316 net.cpp:141] Setting up conv1
I0429 22:38:08.636791 16316 net.cpp:148] Top shape: 128 20 24 24 (1474560)
I0429 22:38:08.636798 16316 net.cpp:156] Memory required for data: 6300160
I0429 22:38:08.636831 16316 layer_factory.hpp:77] Creating layer pool1
I0429 22:38:08.636939 16316 net.cpp:91] Creating Layer pool1
I0429 22:38:08.636951 16316 net.cpp:425] pool1 <- conv1
I0429 22:38:08.636962 16316 net.cpp:399] pool1 -> pool1
I0429 22:38:08.637045 16316 net.cpp:141] Setting up pool1
I0429 22:38:08.637058 16316 net.cpp:148] Top shape: 128 20 12 12 (368640)
I0429 22:38:08.637063 16316 net.cpp:156] Memory required for data: 7774720
I0429 22:38:08.637068 16316 layer_factory.hpp:77] Creating layer conv2
I0429 22:38:08.637086 16316 net.cpp:91] Creating Layer conv2
I0429 22:38:08.637092 16316 net.cpp:425] conv2 <- pool1
I0429 22:38:08.637100 16316 net.cpp:399] conv2 -> conv2
I0429 22:38:08.639895 16316 net.cpp:141] Setting up conv2
I0429 22:38:08.639919 16316 net.cpp:148] Top shape: 128 50 8 8 (409600)
I0429 22:38:08.639925 16316 net.cpp:156] Memory required for data: 9413120
I0429 22:38:08.639938 16316 layer_factory.hpp:77] Creating layer pool2
I0429 22:38:08.639950 16316 net.cpp:91] Creating Layer pool2
I0429 22:38:08.639956 16316 net.cpp:425] pool2 <- conv2
I0429 22:38:08.639966 16316 net.cpp:399] pool2 -> pool2
I0429 22:38:08.640020 16316 net.cpp:141] Setting up pool2
I0429 22:38:08.640030 16316 net.cpp:148] Top shape: 128 50 4 4 (102400)
I0429 22:38:08.640035 16316 net.cpp:156] Memory required for data: 9822720
I0429 22:38:08.640040 16316 layer_factory.hpp:77] Creating layer ip1
I0429 22:38:08.640053 16316 net.cpp:91] Creating Layer ip1
I0429 22:38:08.640058 16316 net.cpp:425] ip1 <- pool2
I0429 22:38:08.640066 16316 net.cpp:399] ip1 -> ip1
I0429 22:38:08.645617 16316 net.cpp:141] Setting up ip1
I0429 22:38:08.645637 16316 net.cpp:148] Top shape: 128 500 (64000)
I0429 22:38:08.645642 16316 net.cpp:156] Memory required for data: 10078720
I0429 22:38:08.645655 16316 layer_factory.hpp:77] Creating layer relu1
I0429 22:38:08.645665 16316 net.cpp:91] Creating Layer relu1
I0429 22:38:08.645671 16316 net.cpp:425] relu1 <- ip1
I0429 22:38:08.645679 16316 net.cpp:386] relu1 -> ip1 (in-place)
I0429 22:38:08.645923 16316 net.cpp:141] Setting up relu1
I0429 22:38:08.645941 16316 net.cpp:148] Top shape: 128 500 (64000)
I0429 22:38:08.645946 16316 net.cpp:156] Memory required for data: 10334720
I0429 22:38:08.645951 16316 layer_factory.hpp:77] Creating layer ip2
I0429 22:38:08.645962 16316 net.cpp:91] Creating Layer ip2
I0429 22:38:08.645967 16316 net.cpp:425] ip2 <- ip1
I0429 22:38:08.645977 16316 net.cpp:399] ip2 -> ip2
I0429 22:38:08.647047 16316 net.cpp:141] Setting up ip2
I0429 22:38:08.647064 16316 net.cpp:148] Top shape: 128 10 (1280)
I0429 22:38:08.647070 16316 net.cpp:156] Memory required for data: 10339840
I0429 22:38:08.647080 16316 layer_factory.hpp:77] Creating layer loss
I0429 22:38:08.647096 16316 net.cpp:91] Creating Layer loss
I0429 22:38:08.647102 16316 net.cpp:425] loss <- ip2
I0429 22:38:08.647109 16316 net.cpp:425] loss <- label
I0429 22:38:08.647119 16316 net.cpp:399] loss -> loss
I0429 22:38:08.647145 16316 layer_factory.hpp:77] Creating layer loss
…
I0429 22:38:08.649129 16316 solver.cpp:181] Creating test net (#0) specified by net file: examples/mnist/lenet_train_test.prototxt
I0429 22:38:08.649201 16316 net.cpp:313] The NetState phase (1) differed from the phase (0) specified by a rule in layer mnist
I0429 22:38:08.649334 16316 net.cpp:49] Initializing net from parameters: 
name: "LeNet"
state {
  phase: TEST
}
layer {
  name: "mnist"
  type: "Data"
  top: "data"
  top: "label"
  include {
    phase: TEST
  }
  transform_param {
    scale: 0.00390625
  }
  data_param {
    source: "examples/mnist/mnist_test_lmdb"
    batch_size: 100
    backend: LMDB
  }
}
layer {
  name: "conv1"
  type: "Convolution"
  bottom: "data"
  top: "conv1"
  param {
    lr_mult: 1
  }
  param {
    lr_mult: 2
  }
  convolution_param {
    num_output: 20
    kernel_size: 5
    stride: 1
    weight_filler {
      type: "xavier"
    }
    bias_filler {
      type: "constant"
    }
  }
}
layer {
  name: "pool1"
  type: "Pooling"
  bottom: "conv1"
  top: "pool1"
  pooling_param {
    pool: MAX
    kernel_size: 2
    stride: 2
  }
}
layer {
  name: "conv2"
  type: "Convolution"
  bottom: "pool1"
  top: "conv2"
  param {
    lr_mult: 1
  }
  param {
    lr_mult: 2
  }
  convolution_param {
    num_output: 50
    kernel_size: 5
    stride: 1
    weight_filler {
      type: "xavier"
    }
    bias_filler {
      type: "constant"
    }
  }
}
layer {
  name: "pool2"
  type: "Pooling"
  bottom: "conv2"
  top: "pool2"
  pooling_param {
    pool: MAX
    kernel_size: 2
    stride: 2
  }
}
layer {
  name: "ip1"
  type: "InnerProduct"
  bottom: "pool2"
  top: "ip1"
  param {
    lr_mult: 1
  }
  param {
    lr_mult: 2
  }
  inner_product_param {
    num_output: 500
    weight_filler {
      type: "xavier"
    }
    bias_filler {
      type: "constant"
    }
  }
}
layer {
  name: "relu1"
  type: "ReLU"
  bottom: "ip1"
  top: "ip1"
}
layer {
  name: "ip2"
  type: "InnerProduct"
  bottom: "ip1"
  top: "ip2"
  param {
    lr_mult: 1
  }
  param {
    lr_mult: 2
  }
  inner_product_param {
    num_output: 10
    weight_filler {
      type: "xavier"
    }
    bias_filler {
      type: "constant"
    }
  }
}
layer {
  name: "accuracy"
  type: "Accuracy"
  bottom: "ip2"
  bottom: "label"
  top: "accuracy"
  include {
    phase: TEST
  }
}
layer {
  name: "loss"
  type: "SoftmaxWithLoss"
  bottom: "ip2"
  bottom: "label"
  top: "loss"
}
I0429 22:38:08.649437 16316 layer_factory.hpp:77] Creating layer mnist
I0429 22:38:08.649592 16316 net.cpp:91] Creating Layer mnist
I0429 22:38:08.649605 16316 net.cpp:399] mnist -> data
I0429 22:38:08.649618 16316 net.cpp:399] mnist -> label
I0429 22:38:08.651705 16322 db_lmdb.cpp:35] Opened lmdb examples/mnist/mnist_test_lmdb
I0429 22:38:08.651888 16316 data_layer.cpp:41] output data size: 100,1,28,28
I0429 22:38:08.653766 16316 net.cpp:141] Setting up mnist
I0429 22:38:08.653787 16316 net.cpp:148] Top shape: 100 1 28 28 (78400)
I0429 22:38:08.653795 16316 net.cpp:148] Top shape: 100 (100)
I0429 22:38:08.653800 16316 net.cpp:156] Memory required for data: 314000
I0429 22:38:08.653806 16316 layer_factory.hpp:77] Creating layer label_mnist_1_split
I0429 22:38:08.653821 16316 net.cpp:91] Creating Layer label_mnist_1_split
I0429 22:38:08.653827 16316 net.cpp:425] label_mnist_1_split <- label
I0429 22:38:08.653836 16316 net.cpp:399] label_mnist_1_split -> label_mnist_1_split_0
I0429 22:38:08.653848 16316 net.cpp:399] label_mnist_1_split -> label_mnist_1_split_1
I0429 22:38:08.653982 16316 net.cpp:141] Setting up label_mnist_1_split
I0429 22:38:08.653997 16316 net.cpp:148] Top shape: 100 (100)
I0429 22:38:08.654003 16316 net.cpp:148] Top shape: 100 (100)
I0429 22:38:08.654008 16316 net.cpp:156] Memory required for data: 314800
I0429 22:38:08.654013 16316 layer_factory.hpp:77] Creating layer conv1
I0429 22:38:08.654028 16316 net.cpp:91] Creating Layer conv1
I0429 22:38:08.654034 16316 net.cpp:425] conv1 <- data
I0429 22:38:08.654043 16316 net.cpp:399] conv1 -> conv1
I0429 22:38:08.656057 16316 net.cpp:141] Setting up conv1
I0429 22:38:08.656080 16316 net.cpp:148] Top shape: 100 20 24 24 (1152000)
I0429 22:38:08.656085 16316 net.cpp:156] Memory required for data: 4922800
I0429 22:38:08.656128 16316 layer_factory.hpp:77] Creating layer pool1
I0429 22:38:08.656147 16316 net.cpp:91] Creating Layer pool1
I0429 22:38:08.656153 16316 net.cpp:425] pool1 <- conv1
I0429 22:38:08.656162 16316 net.cpp:399] pool1 -> pool1
I0429 22:38:08.656229 16316 net.cpp:141] Setting up pool1
I0429 22:38:08.656242 16316 net.cpp:148] Top shape: 100 20 12 12 (288000)
I0429 22:38:08.656247 16316 net.cpp:156] Memory required for data: 6074800
I0429 22:38:08.656251 16316 layer_factory.hpp:77] Creating layer conv2
I0429 22:38:08.656268 16316 net.cpp:91] Creating Layer conv2
I0429 22:38:08.656275 16316 net.cpp:425] conv2 <- pool1
I0429 22:38:08.656286 16316 net.cpp:399] conv2 -> conv2
I0429 22:38:08.658128 16316 net.cpp:141] Setting up conv2
I0429 22:38:08.658150 16316 net.cpp:148] Top shape: 100 50 8 8 (320000)
I0429 22:38:08.658156 16316 net.cpp:156] Memory required for data: 7354800
I0429 22:38:08.658175 16316 layer_factory.hpp:77] Creating layer pool2
I0429 22:38:08.658186 16316 net.cpp:91] Creating Layer pool2
I0429 22:38:08.658191 16316 net.cpp:425] pool2 <- conv2
I0429 22:38:08.658200 16316 net.cpp:399] pool2 -> pool2
I0429 22:38:08.658262 16316 net.cpp:141] Setting up pool2
I0429 22:38:08.658274 16316 net.cpp:148] Top shape: 100 50 4 4 (80000)
I0429 22:38:08.658280 16316 net.cpp:156] Memory required for data: 7674800
I0429 22:38:08.658285 16316 layer_factory.hpp:77] Creating layer ip1
I0429 22:38:08.658294 16316 net.cpp:91] Creating Layer ip1
I0429 22:38:08.658300 16316 net.cpp:425] ip1 <- pool2
I0429 22:38:08.658311 16316 net.cpp:399] ip1 -> ip1
I0429 22:38:08.663697 16316 net.cpp:141] Setting up ip1
I0429 22:38:08.663717 16316 net.cpp:148] Top shape: 100 500 (50000)
I0429 22:38:08.663722 16316 net.cpp:156] Memory required for data: 7874800
I0429 22:38:08.663734 16316 layer_factory.hpp:77] Creating layer relu1
I0429 22:38:08.663743 16316 net.cpp:91] Creating Layer relu1
I0429 22:38:08.663749 16316 net.cpp:425] relu1 <- ip1
I0429 22:38:08.663760 16316 net.cpp:386] relu1 -> ip1 (in-place)
I0429 22:38:08.664189 16316 net.cpp:141] Setting up relu1
I0429 22:38:08.664207 16316 net.cpp:148] Top shape: 100 500 (50000)
I0429 22:38:08.664212 16316 net.cpp:156] Memory required for data: 8074800
I0429 22:38:08.664217 16316 layer_factory.hpp:77] Creating layer ip2
I0429 22:38:08.664232 16316 net.cpp:91] Creating Layer ip2
I0429 22:38:08.664237 16316 net.cpp:425] ip2 <- ip1
I0429 22:38:08.664247 16316 net.cpp:399] ip2 -> ip2
I0429 22:38:08.664453 16316 net.cpp:141] Setting up ip2
I0429 22:38:08.664468 16316 net.cpp:148] Top shape: 100 10 (1000)
I0429 22:38:08.664472 16316 net.cpp:156] Memory required for data: 8078800
I0429 22:38:08.664481 16316 layer_factory.hpp:77] Creating layer ip2_ip2_0_split
I0429 22:38:08.664494 16316 net.cpp:91] Creating Layer ip2_ip2_0_split
I0429 22:38:08.664500 16316 net.cpp:425] ip2_ip2_0_split <- ip2
I0429 22:38:08.664507 16316 net.cpp:399] ip2_ip2_0_split -> ip2_ip2_0_split_0
I0429 22:38:08.664516 16316 net.cpp:399] ip2_ip2_0_split -> ip2_ip2_0_split_1
I0429 22:38:08.664572 16316 net.cpp:141] Setting up ip2_ip2_0_split
I0429 22:38:08.664585 16316 net.cpp:148] Top shape: 100 10 (1000)
I0429 22:38:08.664592 16316 net.cpp:148] Top shape: 100 10 (1000)
I0429 22:38:08.664595 16316 net.cpp:156] Memory required for data: 8086800
I0429 22:38:08.664600 16316 layer_factory.hpp:77] Creating layer accuracy
I0429 22:38:08.664613 16316 net.cpp:91] Creating Layer accuracy
I0429 22:38:08.664618 16316 net.cpp:425] accuracy <- ip2_ip2_0_split_0
I0429 22:38:08.664625 16316 net.cpp:425] accuracy <- label_mnist_1_split_0
I0429 22:38:08.664638 16316 net.cpp:399] accuracy -> accuracy
…
