…
I0429 22:24:29.525542 15813 net.cpp:313] The NetState phase (0) differed from the phase (1) specified by a rule in layer mnist
I0429 22:24:29.525569 15813 net.cpp:313] The NetState phase (0) differed from the phase (1) specified by a rule in layer accuracy
I0429 22:24:29.525696 15813 net.cpp:49] Initializing net from parameters: 
name: "LeNet"
state {
  phase: TRAIN
}
layer {
  name: "mnist"
  type: "Data"
  top: "data"
  top: "label"
  include {
    phase: TRAIN
  }
  transform_param {
    scale: 0.00390625
  }
  data_param {
    source: "examples/mnist/mnist_train_lmdb"
    batch_size: 64
    backend: LMDB
  }
}
layer {
  name: "conv1"
  type: "Convolution"
  bottom: "data"
  top: "conv1"
  param {
    lr_mult: 1
  }
  param {
    lr_mult: 2
  }
  convolution_param {
    num_output: 20
    kernel_size: 5
    stride: 1
    weight_filler {
      type: "xavier"
    }
    bias_filler {
      type: "constant"
    }
  }
}
layer {
  name: "pool1"
  type: "Pooling"
  bottom: "conv1"
  top: "pool1"
  pooling_param {
    pool: MAX
    kernel_size: 2
    stride: 2
  }
}
layer {
  name: "conv2"
  type: "Convolution"
  bottom: "pool1"
  top: "conv2"
  param {
    lr_mult: 1
  }
  param {
    lr_mult: 2
  }
  convolution_param {
    num_output: 50
    kernel_size: 5
    stride: 1
    weight_filler {
      type: "xavier"
    }
    bias_filler {
      type: "constant"
    }
  }
}
layer {
  name: "pool2"
  type: "Pooling"
  bottom: "conv2"
  top: "pool2"
  pooling_param {
    pool: MAX
    kernel_size: 2
    stride: 2
  }
}
layer {
  name: "ip1"
  type: "InnerProduct"
  bottom: "pool2"
  top: "ip1"
  param {
    lr_mult: 1
  }
  param {
    lr_mult: 2
  }
  inner_product_param {
    num_output: 500
    weight_filler {
      type: "xavier"
    }
    bias_filler {
      type: "constant"
    }
  }
}
layer {
  name: "relu1"
  type: "ReLU"
  bottom: "ip1"
  top: "ip1"
}
layer {
  name: "ip2"
  type: "InnerProduct"
  bottom: "ip1"
  top: "ip2"
  param {
    lr_mult: 1
  }
  param {
    lr_mult: 2
  }
  inner_product_param {
    num_output: 10
    weight_filler {
      type: "xavier"
    }
    bias_filler {
      type: "constant"
    }
  }
}
layer {
  name: "loss"
  type: "SoftmaxWithLoss"
  bottom: "ip2"
  bottom: "label"
  top: "loss"
}
I0429 22:24:29.525821 15813 layer_factory.hpp:77] Creating layer mnist
I0429 22:24:29.526582 15813 net.cpp:91] Creating Layer mnist
I0429 22:24:29.526635 15813 net.cpp:399] mnist -> data
I0429 22:24:29.526727 15813 net.cpp:399] mnist -> label
I0429 22:24:29.528944 15817 db_lmdb.cpp:35] Opened lmdb examples/mnist/mnist_train_lmdb
I0429 22:24:29.543385 15813 data_layer.cpp:41] output data size: 64,1,28,28
I0429 22:24:29.545083 15813 net.cpp:141] Setting up mnist
I0429 22:24:29.545155 15813 net.cpp:148] Top shape: 64 1 28 28 (50176)
I0429 22:24:29.545168 15813 net.cpp:148] Top shape: 64 (64)
I0429 22:24:29.545173 15813 net.cpp:156] Memory required for data: 200960
I0429 22:24:29.545187 15813 layer_factory.hpp:77] Creating layer conv1
I0429 22:24:29.545235 15813 net.cpp:91] Creating Layer conv1
I0429 22:24:29.545245 15813 net.cpp:425] conv1 <- data
I0429 22:24:29.545263 15813 net.cpp:399] conv1 -> conv1
I0429 22:24:29.547685 15818 blocking_queue.cpp:50] Waiting for data
I0429 22:24:29.761828 15813 net.cpp:141] Setting up conv1
I0429 22:24:29.761873 15813 net.cpp:148] Top shape: 64 20 24 24 (737280)
I0429 22:24:29.761880 15813 net.cpp:156] Memory required for data: 3150080
I0429 22:24:29.761912 15813 layer_factory.hpp:77] Creating layer pool1
I0429 22:24:29.762009 15813 net.cpp:91] Creating Layer pool1
I0429 22:24:29.762022 15813 net.cpp:425] pool1 <- conv1
I0429 22:24:29.762033 15813 net.cpp:399] pool1 -> pool1
I0429 22:24:29.762147 15813 net.cpp:141] Setting up pool1
I0429 22:24:29.762169 15813 net.cpp:148] Top shape: 64 20 12 12 (184320)
I0429 22:24:29.762179 15813 net.cpp:156] Memory required for data: 3887360
I0429 22:24:29.762190 15813 layer_factory.hpp:77] Creating layer conv2
I0429 22:24:29.762222 15813 net.cpp:91] Creating Layer conv2
I0429 22:24:29.762233 15813 net.cpp:425] conv2 <- pool1
I0429 22:24:29.762249 15813 net.cpp:399] conv2 -> conv2
I0429 22:24:29.765827 15813 net.cpp:141] Setting up conv2
I0429 22:24:29.765867 15813 net.cpp:148] Top shape: 64 50 8 8 (204800)
I0429 22:24:29.765875 15813 net.cpp:156] Memory required for data: 4706560
I0429 22:24:29.765898 15813 layer_factory.hpp:77] Creating layer pool2
I0429 22:24:29.765923 15813 net.cpp:91] Creating Layer pool2
I0429 22:24:29.765933 15813 net.cpp:425] pool2 <- conv2
I0429 22:24:29.765944 15813 net.cpp:399] pool2 -> pool2
I0429 22:24:29.766012 15813 net.cpp:141] Setting up pool2
I0429 22:24:29.766026 15813 net.cpp:148] Top shape: 64 50 4 4 (51200)
I0429 22:24:29.766031 15813 net.cpp:156] Memory required for data: 4911360
I0429 22:24:29.766036 15813 layer_factory.hpp:77] Creating layer ip1
I0429 22:24:29.766052 15813 net.cpp:91] Creating Layer ip1
I0429 22:24:29.766057 15813 net.cpp:425] ip1 <- pool2
I0429 22:24:29.766067 15813 net.cpp:399] ip1 -> ip1
I0429 22:24:29.772855 15813 net.cpp:141] Setting up ip1
I0429 22:24:29.772876 15813 net.cpp:148] Top shape: 64 500 (32000)
I0429 22:24:29.772881 15813 net.cpp:156] Memory required for data: 5039360
I0429 22:24:29.772896 15813 layer_factory.hpp:77] Creating layer relu1
I0429 22:24:29.772907 15813 net.cpp:91] Creating Layer relu1
I0429 22:24:29.772912 15813 net.cpp:425] relu1 <- ip1
I0429 22:24:29.772922 15813 net.cpp:386] relu1 -> ip1 (in-place)
I0429 22:24:29.773180 15813 net.cpp:141] Setting up relu1
I0429 22:24:29.773197 15813 net.cpp:148] Top shape: 64 500 (32000)
I0429 22:24:29.773202 15813 net.cpp:156] Memory required for data: 5167360
I0429 22:24:29.773208 15813 layer_factory.hpp:77] Creating layer ip2
I0429 22:24:29.773221 15813 net.cpp:91] Creating Layer ip2
I0429 22:24:29.773229 15813 net.cpp:425] ip2 <- ip1
I0429 22:24:29.773241 15813 net.cpp:399] ip2 -> ip2
I0429 22:24:29.774610 15813 net.cpp:141] Setting up ip2
I0429 22:24:29.774626 15813 net.cpp:148] Top shape: 64 10 (640)
I0429 22:24:29.774632 15813 net.cpp:156] Memory required for data: 5169920
I0429 22:24:29.774642 15813 layer_factory.hpp:77] Creating layer loss
I0429 22:24:29.774662 15813 net.cpp:91] Creating Layer loss
I0429 22:24:29.774670 15813 net.cpp:425] loss <- ip2
I0429 22:24:29.774677 15813 net.cpp:425] loss <- label
I0429 22:24:29.774688 15813 net.cpp:399] loss -> loss
I0429 22:24:29.774718 15813 layer_factory.hpp:77] Creating layer loss
…
I0429 22:24:29.775936 15813 solver.cpp:181] Creating test net (#0) specified by net file: examples/mnist/lenet_train_test.prototxt
I0429 22:24:29.776026 15813 net.cpp:313] The NetState phase (1) differed from the phase (0) specified by a rule in layer mnist
I0429 22:24:29.776163 15813 net.cpp:49] Initializing net from parameters: 
name: "LeNet"
state {
  phase: TEST
}
layer {
  name: "mnist"
  type: "Data"
  top: "data"
  top: "label"
  include {
    phase: TEST
  }
  transform_param {
    scale: 0.00390625
  }
  data_param {
    source: "examples/mnist/mnist_test_lmdb"
    batch_size: 100
    backend: LMDB
  }
}
layer {
  name: "conv1"
  type: "Convolution"
  bottom: "data"
  top: "conv1"
  param {
    lr_mult: 1
  }
  param {
    lr_mult: 2
  }
  convolution_param {
    num_output: 20
    kernel_size: 5
    stride: 1
    weight_filler {
      type: "xavier"
    }
    bias_filler {
      type: "constant"
    }
  }
}
layer {
  name: "pool1"
  type: "Pooling"
  bottom: "conv1"
  top: "pool1"
  pooling_param {
    pool: MAX
    kernel_size: 2
    stride: 2
  }
}
layer {
  name: "conv2"
  type: "Convolution"
  bottom: "pool1"
  top: "conv2"
  param {
    lr_mult: 1
  }
  param {
    lr_mult: 2
  }
  convolution_param {
    num_output: 50
    kernel_size: 5
    stride: 1
    weight_filler {
      type: "xavier"
    }
    bias_filler {
      type: "constant"
    }
  }
}
layer {
  name: "pool2"
  type: "Pooling"
  bottom: "conv2"
  top: "pool2"
  pooling_param {
    pool: MAX
    kernel_size: 2
    stride: 2
  }
}
layer {
  name: "ip1"
  type: "InnerProduct"
  bottom: "pool2"
  top: "ip1"
  param {
    lr_mult: 1
  }
  param {
    lr_mult: 2
  }
  inner_product_param {
    num_output: 500
    weight_filler {
      type: "xavier"
    }
    bias_filler {
      type: "constant"
    }
  }
}
layer {
  name: "relu1"
  type: "ReLU"
  bottom: "ip1"
  top: "ip1"
}
layer {
  name: "ip2"
  type: "InnerProduct"
  bottom: "ip1"
  top: "ip2"
  param {
    lr_mult: 1
  }
  param {
    lr_mult: 2
  }
  inner_product_param {
    num_output: 10
    weight_filler {
      type: "xavier"
    }
    bias_filler {
      type: "constant"
    }
  }
}
layer {
  name: "accuracy"
  type: "Accuracy"
  bottom: "ip2"
  bottom: "label"
  top: "accuracy"
  include {
    phase: TEST
  }
}
layer {
  name: "loss"
  type: "SoftmaxWithLoss"
  bottom: "ip2"
  bottom: "label"
  top: "loss"
}
I0429 22:24:29.776275 15813 layer_factory.hpp:77] Creating layer mnist
I0429 22:24:29.776453 15813 net.cpp:91] Creating Layer mnist
I0429 22:24:29.776469 15813 net.cpp:399] mnist -> data
I0429 22:24:29.776486 15813 net.cpp:399] mnist -> label
I0429 22:24:29.780665 15819 db_lmdb.cpp:35] Opened lmdb examples/mnist/mnist_test_lmdb
I0429 22:24:29.780856 15813 data_layer.cpp:41] output data size: 100,1,28,28
I0429 22:24:29.783555 15813 net.cpp:141] Setting up mnist
I0429 22:24:29.783574 15813 net.cpp:148] Top shape: 100 1 28 28 (78400)
I0429 22:24:29.783582 15813 net.cpp:148] Top shape: 100 (100)
I0429 22:24:29.783587 15813 net.cpp:156] Memory required for data: 314000
I0429 22:24:29.783593 15813 layer_factory.hpp:77] Creating layer label_mnist_1_split
I0429 22:24:29.783612 15813 net.cpp:91] Creating Layer label_mnist_1_split
I0429 22:24:29.783618 15813 net.cpp:425] label_mnist_1_split <- label
I0429 22:24:29.783627 15813 net.cpp:399] label_mnist_1_split -> label_mnist_1_split_0
I0429 22:24:29.783639 15813 net.cpp:399] label_mnist_1_split -> label_mnist_1_split_1
I0429 22:24:29.783800 15813 net.cpp:141] Setting up label_mnist_1_split
I0429 22:24:29.783817 15813 net.cpp:148] Top shape: 100 (100)
I0429 22:24:29.783823 15813 net.cpp:148] Top shape: 100 (100)
I0429 22:24:29.783828 15813 net.cpp:156] Memory required for data: 314800
I0429 22:24:29.783833 15813 layer_factory.hpp:77] Creating layer conv1
I0429 22:24:29.783849 15813 net.cpp:91] Creating Layer conv1
I0429 22:24:29.783859 15813 net.cpp:425] conv1 <- data
I0429 22:24:29.783869 15813 net.cpp:399] conv1 -> conv1
I0429 22:24:29.815014 15813 net.cpp:141] Setting up conv1
I0429 22:24:29.815052 15813 net.cpp:148] Top shape: 100 20 24 24 (1152000)
I0429 22:24:29.815058 15813 net.cpp:156] Memory required for data: 4922800
I0429 22:24:29.815127 15813 layer_factory.hpp:77] Creating layer pool1
I0429 22:24:29.815146 15813 net.cpp:91] Creating Layer pool1
I0429 22:24:29.815155 15813 net.cpp:425] pool1 <- conv1
I0429 22:24:29.815168 15813 net.cpp:399] pool1 -> pool1
I0429 22:24:29.815240 15813 net.cpp:141] Setting up pool1
I0429 22:24:29.815254 15813 net.cpp:148] Top shape: 100 20 12 12 (288000)
I0429 22:24:29.815259 15813 net.cpp:156] Memory required for data: 6074800
I0429 22:24:29.815264 15813 layer_factory.hpp:77] Creating layer conv2
I0429 22:24:29.815299 15813 net.cpp:91] Creating Layer conv2
I0429 22:24:29.815309 15813 net.cpp:425] conv2 <- pool1
I0429 22:24:29.815320 15813 net.cpp:399] conv2 -> conv2
I0429 22:24:29.833411 15813 net.cpp:141] Setting up conv2
I0429 22:24:29.833437 15813 net.cpp:148] Top shape: 100 50 8 8 (320000)
I0429 22:24:29.833443 15813 net.cpp:156] Memory required for data: 7354800
I0429 22:24:29.833461 15813 layer_factory.hpp:77] Creating layer pool2
I0429 22:24:29.833475 15813 net.cpp:91] Creating Layer pool2
I0429 22:24:29.833483 15813 net.cpp:425] pool2 <- conv2
I0429 22:24:29.833498 15813 net.cpp:399] pool2 -> pool2
I0429 22:24:29.833559 15813 net.cpp:141] Setting up pool2
I0429 22:24:29.833575 15813 net.cpp:148] Top shape: 100 50 4 4 (80000)
I0429 22:24:29.833582 15813 net.cpp:156] Memory required for data: 7674800
I0429 22:24:29.833587 15813 layer_factory.hpp:77] Creating layer ip1
I0429 22:24:29.833600 15813 net.cpp:91] Creating Layer ip1
I0429 22:24:29.833606 15813 net.cpp:425] ip1 <- pool2
I0429 22:24:29.833617 15813 net.cpp:399] ip1 -> ip1
I0429 22:24:29.864856 15813 net.cpp:141] Setting up ip1
I0429 22:24:29.864889 15813 net.cpp:148] Top shape: 100 500 (50000)
I0429 22:24:29.864897 15813 net.cpp:156] Memory required for data: 7874800
I0429 22:24:29.864917 15813 layer_factory.hpp:77] Creating layer relu1
I0429 22:24:29.864933 15813 net.cpp:91] Creating Layer relu1
I0429 22:24:29.864943 15813 net.cpp:425] relu1 <- ip1
I0429 22:24:29.864953 15813 net.cpp:386] relu1 -> ip1 (in-place)
I0429 22:24:29.871863 15813 net.cpp:141] Setting up relu1
I0429 22:24:29.871883 15813 net.cpp:148] Top shape: 100 500 (50000)
I0429 22:24:29.871889 15813 net.cpp:156] Memory required for data: 8074800
I0429 22:24:29.871896 15813 layer_factory.hpp:77] Creating layer ip2
I0429 22:24:29.871915 15813 net.cpp:91] Creating Layer ip2
I0429 22:24:29.871924 15813 net.cpp:425] ip2 <- ip1
I0429 22:24:29.871934 15813 net.cpp:399] ip2 -> ip2
I0429 22:24:29.872156 15813 net.cpp:141] Setting up ip2
I0429 22:24:29.872170 15813 net.cpp:148] Top shape: 100 10 (1000)
I0429 22:24:29.872175 15813 net.cpp:156] Memory required for data: 8078800
I0429 22:24:29.872184 15813 layer_factory.hpp:77] Creating layer ip2_ip2_0_split
I0429 22:24:29.872202 15813 net.cpp:91] Creating Layer ip2_ip2_0_split
I0429 22:24:29.872207 15813 net.cpp:425] ip2_ip2_0_split <- ip2
I0429 22:24:29.872215 15813 net.cpp:399] ip2_ip2_0_split -> ip2_ip2_0_split_0
I0429 22:24:29.872225 15813 net.cpp:399] ip2_ip2_0_split -> ip2_ip2_0_split_1
I0429 22:24:29.872287 15813 net.cpp:141] Setting up ip2_ip2_0_split
I0429 22:24:29.872297 15813 net.cpp:148] Top shape: 100 10 (1000)
I0429 22:24:29.872303 15813 net.cpp:148] Top shape: 100 10 (1000)
I0429 22:24:29.872308 15813 net.cpp:156] Memory required for data: 8086800
I0429 22:24:29.872313 15813 layer_factory.hpp:77] Creating layer accuracy
I0429 22:24:29.872329 15813 net.cpp:91] Creating Layer accuracy
I0429 22:24:29.872339 15813 net.cpp:425] accuracy <- ip2_ip2_0_split_0
I0429 22:24:29.872345 15813 net.cpp:425] accuracy <- label_mnist_1_split_0
I0429 22:24:29.872352 15813 net.cpp:399] accuracy -> accuracy
…
