…
I0430 20:05:57.032337 16809 net.cpp:313] The NetState phase (0) differed from the phase (1) specified by a rule in layer mnist
I0430 20:05:57.032364 16809 net.cpp:313] The NetState phase (0) differed from the phase (1) specified by a rule in layer accuracy
I0430 20:05:57.032485 16809 net.cpp:49] Initializing net from parameters: 
name: "LeNet"
state {
  phase: TRAIN
}
layer {
  name: "mnist"
  type: "Data"
  top: "data"
  top: "label"
  include {
    phase: TRAIN
  }
  transform_param {
    scale: 0.00390625
  }
  data_param {
    source: "examples/mnist/mnist_train_lmdb"
    batch_size: 8
    backend: LMDB
  }
}
layer {
  name: "conv1"
  type: "Convolution"
  bottom: "data"
  top: "conv1"
  param {
    lr_mult: 1
  }
  param {
    lr_mult: 2
  }
  convolution_param {
    num_output: 20
    kernel_size: 5
    stride: 1
    weight_filler {
      type: "xavier"
    }
    bias_filler {
      type: "constant"
    }
  }
}
layer {
  name: "pool1"
  type: "Pooling"
  bottom: "conv1"
  top: "pool1"
  pooling_param {
    pool: MAX
    kernel_size: 2
    stride: 2
  }
}
layer {
  name: "conv2"
  type: "Convolution"
  bottom: "pool1"
  top: "conv2"
  param {
    lr_mult: 1
  }
  param {
    lr_mult: 2
  }
  convolution_param {
    num_output: 50
    kernel_size: 5
    stride: 1
    weight_filler {
      type: "xavier"
    }
    bias_filler {
      type: "constant"
    }
  }
}
layer {
  name: "pool2"
  type: "Pooling"
  bottom: "conv2"
  top: "pool2"
  pooling_param {
    pool: MAX
    kernel_size: 2
    stride: 2
  }
}
layer {
  name: "ip1"
  type: "InnerProduct"
  bottom: "pool2"
  top: "ip1"
  param {
    lr_mult: 1
  }
  param {
    lr_mult: 2
  }
  inner_product_param {
    num_output: 500
    weight_filler {
      type: "xavier"
    }
    bias_filler {
      type: "constant"
    }
  }
}
layer {
  name: "relu1"
  type: "ReLU"
  bottom: "ip1"
  top: "ip1"
}
layer {
  name: "ip2"
  type: "InnerProduct"
  bottom: "ip1"
  top: "ip2"
  param {
    lr_mult: 1
  }
  param {
    lr_mult: 2
  }
  inner_product_param {
    num_output: 10
    weight_filler {
      type: "xavier"
    }
    bias_filler {
      type: "constant"
    }
  }
}
layer {
  name: "loss"
  type: "SoftmaxWithLoss"
  bottom: "ip2"
  bottom: "label"
  top: "loss"
}
I0430 20:05:57.032594 16809 layer_factory.hpp:77] Creating layer mnist
I0430 20:05:57.033288 16809 net.cpp:91] Creating Layer mnist
I0430 20:05:57.033313 16809 net.cpp:399] mnist -> data
I0430 20:05:57.033526 16809 net.cpp:399] mnist -> label
I0430 20:05:57.075461 16813 db_lmdb.cpp:35] Opened lmdb examples/mnist/mnist_train_lmdb
I0430 20:05:57.106580 16809 data_layer.cpp:41] output data size: 8,1,28,28
I0430 20:05:57.119159 16809 net.cpp:141] Setting up mnist
I0430 20:05:57.119261 16809 net.cpp:148] Top shape: 8 1 28 28 (6272)
I0430 20:05:57.119276 16809 net.cpp:148] Top shape: 8 (8)
I0430 20:05:57.119280 16809 net.cpp:156] Memory required for data: 25120
I0430 20:05:57.119304 16809 layer_factory.hpp:77] Creating layer conv1
I0430 20:05:57.119346 16809 net.cpp:91] Creating Layer conv1
I0430 20:05:57.119359 16809 net.cpp:425] conv1 <- data
I0430 20:05:57.119379 16809 net.cpp:399] conv1 -> conv1
I0430 20:05:57.125041 16814 blocking_queue.cpp:50] Waiting for data
I0430 20:05:57.380777 16809 net.cpp:141] Setting up conv1
I0430 20:05:57.380830 16809 net.cpp:148] Top shape: 8 20 24 24 (92160)
I0430 20:05:57.380899 16809 net.cpp:156] Memory required for data: 393760
I0430 20:05:57.380935 16809 layer_factory.hpp:77] Creating layer pool1
I0430 20:05:57.380965 16809 net.cpp:91] Creating Layer pool1
I0430 20:05:57.380976 16809 net.cpp:425] pool1 <- conv1
I0430 20:05:57.380987 16809 net.cpp:399] pool1 -> pool1
I0430 20:05:57.381078 16809 net.cpp:141] Setting up pool1
I0430 20:05:57.381093 16809 net.cpp:148] Top shape: 8 20 12 12 (23040)
I0430 20:05:57.381098 16809 net.cpp:156] Memory required for data: 485920
I0430 20:05:57.381103 16809 layer_factory.hpp:77] Creating layer conv2
I0430 20:05:57.381124 16809 net.cpp:91] Creating Layer conv2
I0430 20:05:57.381129 16809 net.cpp:425] conv2 <- pool1
I0430 20:05:57.381139 16809 net.cpp:399] conv2 -> conv2
I0430 20:05:57.384227 16809 net.cpp:141] Setting up conv2
I0430 20:05:57.384248 16809 net.cpp:148] Top shape: 8 50 8 8 (25600)
I0430 20:05:57.384254 16809 net.cpp:156] Memory required for data: 588320
I0430 20:05:57.384269 16809 layer_factory.hpp:77] Creating layer pool2
I0430 20:05:57.384281 16809 net.cpp:91] Creating Layer pool2
I0430 20:05:57.384287 16809 net.cpp:425] pool2 <- conv2
I0430 20:05:57.384295 16809 net.cpp:399] pool2 -> pool2
I0430 20:05:57.384349 16809 net.cpp:141] Setting up pool2
I0430 20:05:57.384363 16809 net.cpp:148] Top shape: 8 50 4 4 (6400)
I0430 20:05:57.384368 16809 net.cpp:156] Memory required for data: 613920
I0430 20:05:57.384373 16809 layer_factory.hpp:77] Creating layer ip1
I0430 20:05:57.384385 16809 net.cpp:91] Creating Layer ip1
I0430 20:05:57.384394 16809 net.cpp:425] ip1 <- pool2
I0430 20:05:57.384402 16809 net.cpp:399] ip1 -> ip1
I0430 20:05:57.389837 16809 net.cpp:141] Setting up ip1
I0430 20:05:57.389856 16809 net.cpp:148] Top shape: 8 500 (4000)
I0430 20:05:57.389861 16809 net.cpp:156] Memory required for data: 629920
I0430 20:05:57.389875 16809 layer_factory.hpp:77] Creating layer relu1
I0430 20:05:57.389889 16809 net.cpp:91] Creating Layer relu1
I0430 20:05:57.389894 16809 net.cpp:425] relu1 <- ip1
I0430 20:05:57.389902 16809 net.cpp:386] relu1 -> ip1 (in-place)
I0430 20:05:57.390149 16809 net.cpp:141] Setting up relu1
I0430 20:05:57.390166 16809 net.cpp:148] Top shape: 8 500 (4000)
I0430 20:05:57.390171 16809 net.cpp:156] Memory required for data: 645920
I0430 20:05:57.390177 16809 layer_factory.hpp:77] Creating layer ip2
I0430 20:05:57.390187 16809 net.cpp:91] Creating Layer ip2
I0430 20:05:57.390194 16809 net.cpp:425] ip2 <- ip1
I0430 20:05:57.390203 16809 net.cpp:399] ip2 -> ip2
I0430 20:05:57.390391 16809 net.cpp:141] Setting up ip2
I0430 20:05:57.390405 16809 net.cpp:148] Top shape: 8 10 (80)
I0430 20:05:57.390409 16809 net.cpp:156] Memory required for data: 646240
I0430 20:05:57.390419 16809 layer_factory.hpp:77] Creating layer loss
I0430 20:05:57.390439 16809 net.cpp:91] Creating Layer loss
I0430 20:05:57.390445 16809 net.cpp:425] loss <- ip2
I0430 20:05:57.390452 16809 net.cpp:425] loss <- label
I0430 20:05:57.390461 16809 net.cpp:399] loss -> loss
I0430 20:05:57.390491 16809 layer_factory.hpp:77] Creating layer loss
…
I0430 20:05:57.391660 16809 solver.cpp:181] Creating test net (#0) specified by net file: examples/mnist/lenet_train_test.prototxt
I0430 20:05:57.391703 16809 net.cpp:313] The NetState phase (1) differed from the phase (0) specified by a rule in layer mnist
I0430 20:05:57.391840 16809 net.cpp:49] Initializing net from parameters: 
name: "LeNet"
state {
  phase: TEST
}
layer {
  name: "mnist"
  type: "Data"
  top: "data"
  top: "label"
  include {
    phase: TEST
  }
  transform_param {
    scale: 0.00390625
  }
  data_param {
    source: "examples/mnist/mnist_test_lmdb"
    batch_size: 100
    backend: LMDB
  }
}
layer {
  name: "conv1"
  type: "Convolution"
  bottom: "data"
  top: "conv1"
  param {
    lr_mult: 1
  }
  param {
    lr_mult: 2
  }
  convolution_param {
    num_output: 20
    kernel_size: 5
    stride: 1
    weight_filler {
      type: "xavier"
    }
    bias_filler {
      type: "constant"
    }
  }
}
layer {
  name: "pool1"
  type: "Pooling"
  bottom: "conv1"
  top: "pool1"
  pooling_param {
    pool: MAX
    kernel_size: 2
    stride: 2
  }
}
layer {
  name: "conv2"
  type: "Convolution"
  bottom: "pool1"
  top: "conv2"
  param {
    lr_mult: 1
  }
  param {
    lr_mult: 2
  }
  convolution_param {
    num_output: 50
    kernel_size: 5
    stride: 1
    weight_filler {
      type: "xavier"
    }
    bias_filler {
      type: "constant"
    }
  }
}
layer {
  name: "pool2"
  type: "Pooling"
  bottom: "conv2"
  top: "pool2"
  pooling_param {
    pool: MAX
    kernel_size: 2
    stride: 2
  }
}
layer {
  name: "ip1"
  type: "InnerProduct"
  bottom: "pool2"
  top: "ip1"
  param {
    lr_mult: 1
  }
  param {
    lr_mult: 2
  }
  inner_product_param {
    num_output: 500
    weight_filler {
      type: "xavier"
    }
    bias_filler {
      type: "constant"
    }
  }
}
layer {
  name: "relu1"
  type: "ReLU"
  bottom: "ip1"
  top: "ip1"
}
layer {
  name: "ip2"
  type: "InnerProduct"
  bottom: "ip1"
  top: "ip2"
  param {
    lr_mult: 1
  }
  param {
    lr_mult: 2
  }
  inner_product_param {
    num_output: 10
    weight_filler {
      type: "xavier"
    }
    bias_filler {
      type: "constant"
    }
  }
}
layer {
  name: "accuracy"
  type: "Accuracy"
  bottom: "ip2"
  bottom: "label"
  top: "accuracy"
  include {
    phase: TEST
  }
}
layer {
  name: "loss"
  type: "SoftmaxWithLoss"
  bottom: "ip2"
  bottom: "label"
  top: "loss"
}
I0430 20:05:57.391955 16809 layer_factory.hpp:77] Creating layer mnist
I0430 20:05:57.392139 16809 net.cpp:91] Creating Layer mnist
I0430 20:05:57.392154 16809 net.cpp:399] mnist -> data
I0430 20:05:57.392168 16809 net.cpp:399] mnist -> label
I0430 20:05:57.394325 16815 db_lmdb.cpp:35] Opened lmdb examples/mnist/mnist_test_lmdb
I0430 20:05:57.394490 16809 data_layer.cpp:41] output data size: 100,1,28,28
I0430 20:05:57.396353 16809 net.cpp:141] Setting up mnist
I0430 20:05:57.396373 16809 net.cpp:148] Top shape: 100 1 28 28 (78400)
I0430 20:05:57.396379 16809 net.cpp:148] Top shape: 100 (100)
I0430 20:05:57.396384 16809 net.cpp:156] Memory required for data: 314000
I0430 20:05:57.396389 16809 layer_factory.hpp:77] Creating layer label_mnist_1_split
I0430 20:05:57.396402 16809 net.cpp:91] Creating Layer label_mnist_1_split
I0430 20:05:57.396409 16809 net.cpp:425] label_mnist_1_split <- label
I0430 20:05:57.396420 16809 net.cpp:399] label_mnist_1_split -> label_mnist_1_split_0
I0430 20:05:57.396430 16809 net.cpp:399] label_mnist_1_split -> label_mnist_1_split_1
I0430 20:05:57.396500 16809 net.cpp:141] Setting up label_mnist_1_split
I0430 20:05:57.396512 16809 net.cpp:148] Top shape: 100 (100)
I0430 20:05:57.396518 16809 net.cpp:148] Top shape: 100 (100)
I0430 20:05:57.396522 16809 net.cpp:156] Memory required for data: 314800
I0430 20:05:57.396528 16809 layer_factory.hpp:77] Creating layer conv1
I0430 20:05:57.396546 16809 net.cpp:91] Creating Layer conv1
I0430 20:05:57.396551 16809 net.cpp:425] conv1 <- data
I0430 20:05:57.396560 16809 net.cpp:399] conv1 -> conv1
I0430 20:05:57.398407 16809 net.cpp:141] Setting up conv1
I0430 20:05:57.398434 16809 net.cpp:148] Top shape: 100 20 24 24 (1152000)
I0430 20:05:57.398464 16809 net.cpp:156] Memory required for data: 4922800
I0430 20:05:57.398480 16809 layer_factory.hpp:77] Creating layer pool1
I0430 20:05:57.398490 16809 net.cpp:91] Creating Layer pool1
I0430 20:05:57.398495 16809 net.cpp:425] pool1 <- conv1
I0430 20:05:57.398506 16809 net.cpp:399] pool1 -> pool1
I0430 20:05:57.398571 16809 net.cpp:141] Setting up pool1
I0430 20:05:57.398583 16809 net.cpp:148] Top shape: 100 20 12 12 (288000)
I0430 20:05:57.398588 16809 net.cpp:156] Memory required for data: 6074800
I0430 20:05:57.398593 16809 layer_factory.hpp:77] Creating layer conv2
I0430 20:05:57.398612 16809 net.cpp:91] Creating Layer conv2
I0430 20:05:57.398617 16809 net.cpp:425] conv2 <- pool1
I0430 20:05:57.398627 16809 net.cpp:399] conv2 -> conv2
I0430 20:05:57.400605 16809 net.cpp:141] Setting up conv2
I0430 20:05:57.400626 16809 net.cpp:148] Top shape: 100 50 8 8 (320000)
I0430 20:05:57.400632 16809 net.cpp:156] Memory required for data: 7354800
I0430 20:05:57.400648 16809 layer_factory.hpp:77] Creating layer pool2
I0430 20:05:57.400658 16809 net.cpp:91] Creating Layer pool2
I0430 20:05:57.400665 16809 net.cpp:425] pool2 <- conv2
I0430 20:05:57.400676 16809 net.cpp:399] pool2 -> pool2
I0430 20:05:57.400737 16809 net.cpp:141] Setting up pool2
I0430 20:05:57.400756 16809 net.cpp:148] Top shape: 100 50 4 4 (80000)
I0430 20:05:57.400761 16809 net.cpp:156] Memory required for data: 7674800
I0430 20:05:57.400766 16809 layer_factory.hpp:77] Creating layer ip1
I0430 20:05:57.400775 16809 net.cpp:91] Creating Layer ip1
I0430 20:05:57.400780 16809 net.cpp:425] ip1 <- pool2
I0430 20:05:57.400790 16809 net.cpp:399] ip1 -> ip1
I0430 20:05:57.406574 16809 net.cpp:141] Setting up ip1
I0430 20:05:57.406596 16809 net.cpp:148] Top shape: 100 500 (50000)
I0430 20:05:57.406601 16809 net.cpp:156] Memory required for data: 7874800
I0430 20:05:57.406615 16809 layer_factory.hpp:77] Creating layer relu1
I0430 20:05:57.406622 16809 net.cpp:91] Creating Layer relu1
I0430 20:05:57.406628 16809 net.cpp:425] relu1 <- ip1
I0430 20:05:57.406635 16809 net.cpp:386] relu1 -> ip1 (in-place)
I0430 20:05:57.407065 16809 net.cpp:141] Setting up relu1
I0430 20:05:57.407085 16809 net.cpp:148] Top shape: 100 500 (50000)
I0430 20:05:57.407091 16809 net.cpp:156] Memory required for data: 8074800
I0430 20:05:57.407096 16809 layer_factory.hpp:77] Creating layer ip2
I0430 20:05:57.407109 16809 net.cpp:91] Creating Layer ip2
I0430 20:05:57.407114 16809 net.cpp:425] ip2 <- ip1
I0430 20:05:57.407125 16809 net.cpp:399] ip2 -> ip2
I0430 20:05:57.407351 16809 net.cpp:141] Setting up ip2
I0430 20:05:57.407366 16809 net.cpp:148] Top shape: 100 10 (1000)
I0430 20:05:57.407371 16809 net.cpp:156] Memory required for data: 8078800
I0430 20:05:57.407379 16809 layer_factory.hpp:77] Creating layer ip2_ip2_0_split
I0430 20:05:57.407387 16809 net.cpp:91] Creating Layer ip2_ip2_0_split
I0430 20:05:57.407392 16809 net.cpp:425] ip2_ip2_0_split <- ip2
I0430 20:05:57.407404 16809 net.cpp:399] ip2_ip2_0_split -> ip2_ip2_0_split_0
I0430 20:05:57.407414 16809 net.cpp:399] ip2_ip2_0_split -> ip2_ip2_0_split_1
I0430 20:05:57.407465 16809 net.cpp:141] Setting up ip2_ip2_0_split
I0430 20:05:57.407480 16809 net.cpp:148] Top shape: 100 10 (1000)
I0430 20:05:57.407485 16809 net.cpp:148] Top shape: 100 10 (1000)
I0430 20:05:57.407490 16809 net.cpp:156] Memory required for data: 8086800
I0430 20:05:57.407495 16809 layer_factory.hpp:77] Creating layer accuracy
I0430 20:05:57.407507 16809 net.cpp:91] Creating Layer accuracy
I0430 20:05:57.407512 16809 net.cpp:425] accuracy <- ip2_ip2_0_split_0
I0430 20:05:57.407519 16809 net.cpp:425] accuracy <- label_mnist_1_split_0
I0430 20:05:57.407526 16809 net.cpp:399] accuracy -> accuracy
…
