…
I0429 22:35:34.987464 16246 net.cpp:313] The NetState phase (0) differed from the phase (1) specified by a rule in layer mnist
I0429 22:35:34.987493 16246 net.cpp:313] The NetState phase (0) differed from the phase (1) specified by a rule in layer accuracy
I0429 22:35:34.987615 16246 net.cpp:49] Initializing net from parameters: 
name: "LeNet"
state {
  phase: TRAIN
}
layer {
  name: "mnist"
  type: "Data"
  top: "data"
  top: "label"
  include {
    phase: TRAIN
  }
  transform_param {
    scale: 0.00390625
  }
  data_param {
    source: "examples/mnist/mnist_train_lmdb"
    batch_size: 32
    backend: LMDB
  }
}
layer {
  name: "conv1"
  type: "Convolution"
  bottom: "data"
  top: "conv1"
  param {
    lr_mult: 1
  }
  param {
    lr_mult: 2
  }
  convolution_param {
    num_output: 20
    kernel_size: 5
    stride: 1
    weight_filler {
      type: "xavier"
    }
    bias_filler {
      type: "constant"
    }
  }
}
layer {
  name: "pool1"
  type: "Pooling"
  bottom: "conv1"
  top: "pool1"
  pooling_param {
    pool: MAX
    kernel_size: 2
    stride: 2
  }
}
layer {
  name: "conv2"
  type: "Convolution"
  bottom: "pool1"
  top: "conv2"
  param {
    lr_mult: 1
  }
  param {
    lr_mult: 2
  }
  convolution_param {
    num_output: 50
    kernel_size: 5
    stride: 1
    weight_filler {
      type: "xavier"
    }
    bias_filler {
      type: "constant"
    }
  }
}
layer {
  name: "pool2"
  type: "Pooling"
  bottom: "conv2"
  top: "pool2"
  pooling_param {
    pool: MAX
    kernel_size: 2
    stride: 2
  }
}
layer {
  name: "ip1"
  type: "InnerProduct"
  bottom: "pool2"
  top: "ip1"
  param {
    lr_mult: 1
  }
  param {
    lr_mult: 2
  }
  inner_product_param {
    num_output: 500
    weight_filler {
      type: "xavier"
    }
    bias_filler {
      type: "constant"
    }
  }
}
layer {
  name: "relu1"
  type: "ReLU"
  bottom: "ip1"
  top: "ip1"
}
layer {
  name: "ip2"
  type: "InnerProduct"
  bottom: "ip1"
  top: "ip2"
  param {
    lr_mult: 1
  }
  param {
    lr_mult: 2
  }
  inner_product_param {
    num_output: 10
    weight_filler {
      type: "xavier"
    }
    bias_filler {
      type: "constant"
    }
  }
}
layer {
  name: "loss"
  type: "SoftmaxWithLoss"
  bottom: "ip2"
  bottom: "label"
  top: "loss"
}
I0429 22:35:34.987737 16246 layer_factory.hpp:77] Creating layer mnist
I0429 22:35:34.988466 16246 net.cpp:91] Creating Layer mnist
I0429 22:35:34.988582 16246 net.cpp:399] mnist -> data
I0429 22:35:34.988684 16246 net.cpp:399] mnist -> label
I0429 22:35:34.990732 16250 db_lmdb.cpp:35] Opened lmdb examples/mnist/mnist_train_lmdb
I0429 22:35:35.005583 16246 data_layer.cpp:41] output data size: 32,1,28,28
I0429 22:35:35.007385 16246 net.cpp:141] Setting up mnist
I0429 22:35:35.007494 16246 net.cpp:148] Top shape: 32 1 28 28 (25088)
I0429 22:35:35.007510 16246 net.cpp:148] Top shape: 32 (32)
I0429 22:35:35.007515 16246 net.cpp:156] Memory required for data: 100480
I0429 22:35:35.007527 16246 layer_factory.hpp:77] Creating layer conv1
I0429 22:35:35.007568 16246 net.cpp:91] Creating Layer conv1
I0429 22:35:35.007581 16246 net.cpp:425] conv1 <- data
I0429 22:35:35.007597 16246 net.cpp:399] conv1 -> conv1
I0429 22:35:35.222522 16246 net.cpp:141] Setting up conv1
I0429 22:35:35.222573 16246 net.cpp:148] Top shape: 32 20 24 24 (368640)
I0429 22:35:35.222580 16246 net.cpp:156] Memory required for data: 1575040
I0429 22:35:35.222617 16246 layer_factory.hpp:77] Creating layer pool1
I0429 22:35:35.222646 16246 net.cpp:91] Creating Layer pool1
I0429 22:35:35.222656 16246 net.cpp:425] pool1 <- conv1
I0429 22:35:35.222724 16246 net.cpp:399] pool1 -> pool1
I0429 22:35:35.222812 16246 net.cpp:141] Setting up pool1
I0429 22:35:35.222827 16246 net.cpp:148] Top shape: 32 20 12 12 (92160)
I0429 22:35:35.222832 16246 net.cpp:156] Memory required for data: 1943680
I0429 22:35:35.222837 16246 layer_factory.hpp:77] Creating layer conv2
I0429 22:35:35.222859 16246 net.cpp:91] Creating Layer conv2
I0429 22:35:35.222864 16246 net.cpp:425] conv2 <- pool1
I0429 22:35:35.222873 16246 net.cpp:399] conv2 -> conv2
I0429 22:35:35.225153 16246 net.cpp:141] Setting up conv2
I0429 22:35:35.225175 16246 net.cpp:148] Top shape: 32 50 8 8 (102400)
I0429 22:35:35.225180 16246 net.cpp:156] Memory required for data: 2353280
I0429 22:35:35.225198 16246 layer_factory.hpp:77] Creating layer pool2
I0429 22:35:35.225209 16246 net.cpp:91] Creating Layer pool2
I0429 22:35:35.225215 16246 net.cpp:425] pool2 <- conv2
I0429 22:35:35.225226 16246 net.cpp:399] pool2 -> pool2
I0429 22:35:35.225291 16246 net.cpp:141] Setting up pool2
I0429 22:35:35.225301 16246 net.cpp:148] Top shape: 32 50 4 4 (25600)
I0429 22:35:35.225304 16246 net.cpp:156] Memory required for data: 2455680
I0429 22:35:35.225309 16246 layer_factory.hpp:77] Creating layer ip1
I0429 22:35:35.225327 16246 net.cpp:91] Creating Layer ip1
I0429 22:35:35.225332 16246 net.cpp:425] ip1 <- pool2
I0429 22:35:35.225340 16246 net.cpp:399] ip1 -> ip1
I0429 22:35:35.230974 16246 net.cpp:141] Setting up ip1
I0429 22:35:35.230995 16246 net.cpp:148] Top shape: 32 500 (16000)
I0429 22:35:35.231000 16246 net.cpp:156] Memory required for data: 2519680
I0429 22:35:35.231014 16246 layer_factory.hpp:77] Creating layer relu1
I0429 22:35:35.231027 16246 net.cpp:91] Creating Layer relu1
I0429 22:35:35.231034 16246 net.cpp:425] relu1 <- ip1
I0429 22:35:35.231041 16246 net.cpp:386] relu1 -> ip1 (in-place)
I0429 22:35:35.231319 16246 net.cpp:141] Setting up relu1
I0429 22:35:35.231336 16246 net.cpp:148] Top shape: 32 500 (16000)
I0429 22:35:35.231341 16246 net.cpp:156] Memory required for data: 2583680
I0429 22:35:35.231348 16246 layer_factory.hpp:77] Creating layer ip2
I0429 22:35:35.231358 16246 net.cpp:91] Creating Layer ip2
I0429 22:35:35.231362 16246 net.cpp:425] ip2 <- ip1
I0429 22:35:35.231374 16246 net.cpp:399] ip2 -> ip2
I0429 22:35:35.232513 16246 net.cpp:141] Setting up ip2
I0429 22:35:35.232532 16246 net.cpp:148] Top shape: 32 10 (320)
I0429 22:35:35.232537 16246 net.cpp:156] Memory required for data: 2584960
I0429 22:35:35.232547 16246 layer_factory.hpp:77] Creating layer loss
I0429 22:35:35.232563 16246 net.cpp:91] Creating Layer loss
I0429 22:35:35.232568 16246 net.cpp:425] loss <- ip2
I0429 22:35:35.232666 16246 net.cpp:425] loss <- label
I0429 22:35:35.232684 16246 net.cpp:399] loss -> loss
I0429 22:35:35.232717 16246 layer_factory.hpp:77] Creating layer loss
…
I0429 22:35:35.233861 16246 solver.cpp:181] Creating test net (#0) specified by net file: examples/mnist/lenet_train_test.prototxt
I0429 22:35:35.233903 16246 net.cpp:313] The NetState phase (1) differed from the phase (0) specified by a rule in layer mnist
I0429 22:35:35.234077 16246 net.cpp:49] Initializing net from parameters: 
name: "LeNet"
state {
  phase: TEST
}
layer {
  name: "mnist"
  type: "Data"
  top: "data"
  top: "label"
  include {
    phase: TEST
  }
  transform_param {
    scale: 0.00390625
  }
  data_param {
    source: "examples/mnist/mnist_test_lmdb"
    batch_size: 100
    backend: LMDB
  }
}
layer {
  name: "conv1"
  type: "Convolution"
  bottom: "data"
  top: "conv1"
  param {
    lr_mult: 1
  }
  param {
    lr_mult: 2
  }
  convolution_param {
    num_output: 20
    kernel_size: 5
    stride: 1
    weight_filler {
      type: "xavier"
    }
    bias_filler {
      type: "constant"
    }
  }
}
layer {
  name: "pool1"
  type: "Pooling"
  bottom: "conv1"
  top: "pool1"
  pooling_param {
    pool: MAX
    kernel_size: 2
    stride: 2
  }
}
layer {
  name: "conv2"
  type: "Convolution"
  bottom: "pool1"
  top: "conv2"
  param {
    lr_mult: 1
  }
  param {
    lr_mult: 2
  }
  convolution_param {
    num_output: 50
    kernel_size: 5
    stride: 1
    weight_filler {
      type: "xavier"
    }
    bias_filler {
      type: "constant"
    }
  }
}
layer {
  name: "pool2"
  type: "Pooling"
  bottom: "conv2"
  top: "pool2"
  pooling_param {
    pool: MAX
    kernel_size: 2
    stride: 2
  }
}
layer {
  name: "ip1"
  type: "InnerProduct"
  bottom: "pool2"
  top: "ip1"
  param {
    lr_mult: 1
  }
  param {
    lr_mult: 2
  }
  inner_product_param {
    num_output: 500
    weight_filler {
      type: "xavier"
    }
    bias_filler {
      type: "constant"
    }
  }
}
layer {
  name: "relu1"
  type: "ReLU"
  bottom: "ip1"
  top: "ip1"
}
layer {
  name: "ip2"
  type: "InnerProduct"
  bottom: "ip1"
  top: "ip2"
  param {
    lr_mult: 1
  }
  param {
    lr_mult: 2
  }
  inner_product_param {
    num_output: 10
    weight_filler {
      type: "xavier"
    }
    bias_filler {
      type: "constant"
    }
  }
}
layer {
  name: "accuracy"
  type: "Accuracy"
  bottom: "ip2"
  bottom: "label"
  top: "accuracy"
  include {
    phase: TEST
  }
}
layer {
  name: "loss"
  type: "SoftmaxWithLoss"
  bottom: "ip2"
  bottom: "label"
  top: "loss"
}
I0429 22:35:35.234197 16246 layer_factory.hpp:77] Creating layer mnist
I0429 22:35:35.234383 16246 net.cpp:91] Creating Layer mnist
I0429 22:35:35.234395 16246 net.cpp:399] mnist -> data
I0429 22:35:35.234408 16246 net.cpp:399] mnist -> label
I0429 22:35:35.236846 16252 db_lmdb.cpp:35] Opened lmdb examples/mnist/mnist_test_lmdb
I0429 22:35:35.237136 16246 data_layer.cpp:41] output data size: 100,1,28,28
I0429 22:35:35.239104 16246 net.cpp:141] Setting up mnist
I0429 22:35:35.239125 16246 net.cpp:148] Top shape: 100 1 28 28 (78400)
I0429 22:35:35.239132 16246 net.cpp:148] Top shape: 100 (100)
I0429 22:35:35.239136 16246 net.cpp:156] Memory required for data: 314000
I0429 22:35:35.239142 16246 layer_factory.hpp:77] Creating layer label_mnist_1_split
I0429 22:35:35.239162 16246 net.cpp:91] Creating Layer label_mnist_1_split
I0429 22:35:35.239168 16246 net.cpp:425] label_mnist_1_split <- label
I0429 22:35:35.239176 16246 net.cpp:399] label_mnist_1_split -> label_mnist_1_split_0
I0429 22:35:35.239187 16246 net.cpp:399] label_mnist_1_split -> label_mnist_1_split_1
I0429 22:35:35.239282 16246 net.cpp:141] Setting up label_mnist_1_split
I0429 22:35:35.239307 16246 net.cpp:148] Top shape: 100 (100)
I0429 22:35:35.239313 16246 net.cpp:148] Top shape: 100 (100)
I0429 22:35:35.239318 16246 net.cpp:156] Memory required for data: 314800
I0429 22:35:35.239323 16246 layer_factory.hpp:77] Creating layer conv1
I0429 22:35:35.239342 16246 net.cpp:91] Creating Layer conv1
I0429 22:35:35.239348 16246 net.cpp:425] conv1 <- data
I0429 22:35:35.239359 16246 net.cpp:399] conv1 -> conv1
I0429 22:35:35.241685 16246 net.cpp:141] Setting up conv1
I0429 22:35:35.241706 16246 net.cpp:148] Top shape: 100 20 24 24 (1152000)
I0429 22:35:35.241713 16246 net.cpp:156] Memory required for data: 4922800
I0429 22:35:35.241727 16246 layer_factory.hpp:77] Creating layer pool1
I0429 22:35:35.241740 16246 net.cpp:91] Creating Layer pool1
I0429 22:35:35.241772 16246 net.cpp:425] pool1 <- conv1
I0429 22:35:35.241785 16246 net.cpp:399] pool1 -> pool1
I0429 22:35:35.241843 16246 net.cpp:141] Setting up pool1
I0429 22:35:35.241858 16246 net.cpp:148] Top shape: 100 20 12 12 (288000)
I0429 22:35:35.241863 16246 net.cpp:156] Memory required for data: 6074800
I0429 22:35:35.241868 16246 layer_factory.hpp:77] Creating layer conv2
I0429 22:35:35.241883 16246 net.cpp:91] Creating Layer conv2
I0429 22:35:35.241889 16246 net.cpp:425] conv2 <- pool1
I0429 22:35:35.241901 16246 net.cpp:399] conv2 -> conv2
I0429 22:35:35.244014 16246 net.cpp:141] Setting up conv2
I0429 22:35:35.244040 16246 net.cpp:148] Top shape: 100 50 8 8 (320000)
I0429 22:35:35.244047 16246 net.cpp:156] Memory required for data: 7354800
I0429 22:35:35.244062 16246 layer_factory.hpp:77] Creating layer pool2
I0429 22:35:35.244073 16246 net.cpp:91] Creating Layer pool2
I0429 22:35:35.244079 16246 net.cpp:425] pool2 <- conv2
I0429 22:35:35.244087 16246 net.cpp:399] pool2 -> pool2
I0429 22:35:35.244151 16246 net.cpp:141] Setting up pool2
I0429 22:35:35.244168 16246 net.cpp:148] Top shape: 100 50 4 4 (80000)
I0429 22:35:35.244173 16246 net.cpp:156] Memory required for data: 7674800
I0429 22:35:35.244179 16246 layer_factory.hpp:77] Creating layer ip1
I0429 22:35:35.244192 16246 net.cpp:91] Creating Layer ip1
I0429 22:35:35.244199 16246 net.cpp:425] ip1 <- pool2
I0429 22:35:35.244209 16246 net.cpp:399] ip1 -> ip1
I0429 22:35:35.250169 16246 net.cpp:141] Setting up ip1
I0429 22:35:35.250188 16246 net.cpp:148] Top shape: 100 500 (50000)
I0429 22:35:35.250193 16246 net.cpp:156] Memory required for data: 7874800
I0429 22:35:35.250206 16246 layer_factory.hpp:77] Creating layer relu1
I0429 22:35:35.250219 16246 net.cpp:91] Creating Layer relu1
I0429 22:35:35.250226 16246 net.cpp:425] relu1 <- ip1
I0429 22:35:35.250232 16246 net.cpp:386] relu1 -> ip1 (in-place)
I0429 22:35:35.250677 16246 net.cpp:141] Setting up relu1
I0429 22:35:35.250695 16246 net.cpp:148] Top shape: 100 500 (50000)
I0429 22:35:35.250700 16246 net.cpp:156] Memory required for data: 8074800
I0429 22:35:35.250705 16246 layer_factory.hpp:77] Creating layer ip2
I0429 22:35:35.250720 16246 net.cpp:91] Creating Layer ip2
I0429 22:35:35.250726 16246 net.cpp:425] ip2 <- ip1
I0429 22:35:35.250738 16246 net.cpp:399] ip2 -> ip2
I0429 22:35:35.250946 16246 net.cpp:141] Setting up ip2
I0429 22:35:35.250962 16246 net.cpp:148] Top shape: 100 10 (1000)
I0429 22:35:35.250965 16246 net.cpp:156] Memory required for data: 8078800
I0429 22:35:35.250975 16246 layer_factory.hpp:77] Creating layer ip2_ip2_0_split
I0429 22:35:35.250984 16246 net.cpp:91] Creating Layer ip2_ip2_0_split
I0429 22:35:35.250990 16246 net.cpp:425] ip2_ip2_0_split <- ip2
I0429 22:35:35.250998 16246 net.cpp:399] ip2_ip2_0_split -> ip2_ip2_0_split_0
I0429 22:35:35.251006 16246 net.cpp:399] ip2_ip2_0_split -> ip2_ip2_0_split_1
I0429 22:35:35.251060 16246 net.cpp:141] Setting up ip2_ip2_0_split
I0429 22:35:35.251072 16246 net.cpp:148] Top shape: 100 10 (1000)
I0429 22:35:35.251080 16246 net.cpp:148] Top shape: 100 10 (1000)
I0429 22:35:35.251083 16246 net.cpp:156] Memory required for data: 8086800
I0429 22:35:35.251088 16246 layer_factory.hpp:77] Creating layer accuracy
I0429 22:35:35.251103 16246 net.cpp:91] Creating Layer accuracy
I0429 22:35:35.251109 16246 net.cpp:425] accuracy <- ip2_ip2_0_split_0
I0429 22:35:35.251116 16246 net.cpp:425] accuracy <- label_mnist_1_split_0
I0429 22:35:35.251123 16246 net.cpp:399] accuracy -> accuracy
…
