…
I0430 20:08:43.908270 17019 net.cpp:313] The NetState phase (0) differed from the phase (1) specified by a rule in layer mnist
I0430 20:08:43.908301 17019 net.cpp:313] The NetState phase (0) differed from the phase (1) specified by a rule in layer accuracy
I0430 20:08:43.908433 17019 net.cpp:49] Initializing net from parameters: 
name: "LeNet"
state {
  phase: TRAIN
}
layer {
  name: "mnist"
  type: "Data"
  top: "data"
  top: "label"
  include {
    phase: TRAIN
  }
  transform_param {
    scale: 0.00390625
  }
  data_param {
    source: "examples/mnist/mnist_train_lmdb"
    batch_size: 128
    backend: LMDB
  }
}
layer {
  name: "conv1"
  type: "Convolution"
  bottom: "data"
  top: "conv1"
  param {
    lr_mult: 1
  }
  param {
    lr_mult: 2
  }
  convolution_param {
    num_output: 20
    kernel_size: 5
    stride: 1
    weight_filler {
      type: "xavier"
    }
    bias_filler {
      type: "constant"
    }
  }
}
layer {
  name: "pool1"
  type: "Pooling"
  bottom: "conv1"
  top: "pool1"
  pooling_param {
    pool: MAX
    kernel_size: 2
    stride: 2
  }
}
layer {
  name: "conv2"
  type: "Convolution"
  bottom: "pool1"
  top: "conv2"
  param {
    lr_mult: 1
  }
  param {
    lr_mult: 2
  }
  convolution_param {
    num_output: 50
    kernel_size: 5
    stride: 1
    weight_filler {
      type: "xavier"
    }
    bias_filler {
      type: "constant"
    }
  }
}
layer {
  name: "pool2"
  type: "Pooling"
  bottom: "conv2"
  top: "pool2"
  pooling_param {
    pool: MAX
    kernel_size: 2
    stride: 2
  }
}
layer {
  name: "ip1"
  type: "InnerProduct"
  bottom: "pool2"
  top: "ip1"
  param {
    lr_mult: 1
  }
  param {
    lr_mult: 2
  }
  inner_product_param {
    num_output: 500
    weight_filler {
      type: "xavier"
    }
    bias_filler {
      type: "constant"
    }
  }
}
layer {
  name: "relu1"
  type: "ReLU"
  bottom: "ip1"
  top: "ip1"
}
layer {
  name: "ip2"
  type: "InnerProduct"
  bottom: "ip1"
  top: "ip2"
  param {
    lr_mult: 1
  }
  param {
    lr_mult: 2
  }
  inner_product_param {
    num_output: 10
    weight_filler {
      type: "xavier"
    }
    bias_filler {
      type: "constant"
    }
  }
}
layer {
  name: "loss"
  type: "SoftmaxWithLoss"
  bottom: "ip2"
  bottom: "label"
  top: "loss"
}
I0430 20:08:43.908545 17019 layer_factory.hpp:77] Creating layer mnist
I0430 20:08:43.909359 17019 net.cpp:91] Creating Layer mnist
I0430 20:08:43.909469 17019 net.cpp:399] mnist -> data
I0430 20:08:43.909564 17019 net.cpp:399] mnist -> label
I0430 20:08:43.911885 17029 db_lmdb.cpp:35] Opened lmdb examples/mnist/mnist_train_lmdb
I0430 20:08:43.926899 17019 data_layer.cpp:41] output data size: 128,1,28,28
I0430 20:08:43.930124 17019 net.cpp:141] Setting up mnist
I0430 20:08:43.930160 17019 net.cpp:148] Top shape: 128 1 28 28 (100352)
I0430 20:08:43.930169 17019 net.cpp:148] Top shape: 128 (128)
I0430 20:08:43.930174 17019 net.cpp:156] Memory required for data: 401920
I0430 20:08:43.930186 17019 layer_factory.hpp:77] Creating layer conv1
I0430 20:08:43.930225 17019 net.cpp:91] Creating Layer conv1
I0430 20:08:43.930238 17019 net.cpp:425] conv1 <- data
I0430 20:08:43.930254 17019 net.cpp:399] conv1 -> conv1
I0430 20:08:43.932600 17030 blocking_queue.cpp:50] Waiting for data
I0430 20:08:44.148481 17019 net.cpp:141] Setting up conv1
I0430 20:08:44.148530 17019 net.cpp:148] Top shape: 128 20 24 24 (1474560)
I0430 20:08:44.148600 17019 net.cpp:156] Memory required for data: 6300160
I0430 20:08:44.148634 17019 layer_factory.hpp:77] Creating layer pool1
I0430 20:08:44.148663 17019 net.cpp:91] Creating Layer pool1
I0430 20:08:44.148674 17019 net.cpp:425] pool1 <- conv1
I0430 20:08:44.148684 17019 net.cpp:399] pool1 -> pool1
I0430 20:08:44.148777 17019 net.cpp:141] Setting up pool1
I0430 20:08:44.148792 17019 net.cpp:148] Top shape: 128 20 12 12 (368640)
I0430 20:08:44.148797 17019 net.cpp:156] Memory required for data: 7774720
I0430 20:08:44.148802 17019 layer_factory.hpp:77] Creating layer conv2
I0430 20:08:44.148821 17019 net.cpp:91] Creating Layer conv2
I0430 20:08:44.148830 17019 net.cpp:425] conv2 <- pool1
I0430 20:08:44.148839 17019 net.cpp:399] conv2 -> conv2
I0430 20:08:44.151753 17019 net.cpp:141] Setting up conv2
I0430 20:08:44.151777 17019 net.cpp:148] Top shape: 128 50 8 8 (409600)
I0430 20:08:44.151782 17019 net.cpp:156] Memory required for data: 9413120
I0430 20:08:44.151799 17019 layer_factory.hpp:77] Creating layer pool2
I0430 20:08:44.151811 17019 net.cpp:91] Creating Layer pool2
I0430 20:08:44.151818 17019 net.cpp:425] pool2 <- conv2
I0430 20:08:44.151825 17019 net.cpp:399] pool2 -> pool2
I0430 20:08:44.151887 17019 net.cpp:141] Setting up pool2
I0430 20:08:44.151901 17019 net.cpp:148] Top shape: 128 50 4 4 (102400)
I0430 20:08:44.151906 17019 net.cpp:156] Memory required for data: 9822720
I0430 20:08:44.151911 17019 layer_factory.hpp:77] Creating layer ip1
I0430 20:08:44.151926 17019 net.cpp:91] Creating Layer ip1
I0430 20:08:44.151933 17019 net.cpp:425] ip1 <- pool2
I0430 20:08:44.151942 17019 net.cpp:399] ip1 -> ip1
I0430 20:08:44.157379 17019 net.cpp:141] Setting up ip1
I0430 20:08:44.157397 17019 net.cpp:148] Top shape: 128 500 (64000)
I0430 20:08:44.157402 17019 net.cpp:156] Memory required for data: 10078720
I0430 20:08:44.157415 17019 layer_factory.hpp:77] Creating layer relu1
I0430 20:08:44.157428 17019 net.cpp:91] Creating Layer relu1
I0430 20:08:44.157434 17019 net.cpp:425] relu1 <- ip1
I0430 20:08:44.157445 17019 net.cpp:386] relu1 -> ip1 (in-place)
I0430 20:08:44.157711 17019 net.cpp:141] Setting up relu1
I0430 20:08:44.157727 17019 net.cpp:148] Top shape: 128 500 (64000)
I0430 20:08:44.157732 17019 net.cpp:156] Memory required for data: 10334720
I0430 20:08:44.157737 17019 layer_factory.hpp:77] Creating layer ip2
I0430 20:08:44.157750 17019 net.cpp:91] Creating Layer ip2
I0430 20:08:44.157758 17019 net.cpp:425] ip2 <- ip1
I0430 20:08:44.157770 17019 net.cpp:399] ip2 -> ip2
I0430 20:08:44.158885 17019 net.cpp:141] Setting up ip2
I0430 20:08:44.158903 17019 net.cpp:148] Top shape: 128 10 (1280)
I0430 20:08:44.158907 17019 net.cpp:156] Memory required for data: 10339840
I0430 20:08:44.158917 17019 layer_factory.hpp:77] Creating layer loss
I0430 20:08:44.158932 17019 net.cpp:91] Creating Layer loss
I0430 20:08:44.158941 17019 net.cpp:425] loss <- ip2
I0430 20:08:44.158948 17019 net.cpp:425] loss <- label
I0430 20:08:44.158962 17019 net.cpp:399] loss -> loss
I0430 20:08:44.158987 17019 layer_factory.hpp:77] Creating layer loss
…
I0430 20:08:44.161087 17019 solver.cpp:181] Creating test net (#0) specified by net file: examples/mnist/lenet_train_test.prototxt
I0430 20:08:44.161130 17019 net.cpp:313] The NetState phase (1) differed from the phase (0) specified by a rule in layer mnist
I0430 20:08:44.161273 17019 net.cpp:49] Initializing net from parameters: 
name: "LeNet"
state {
  phase: TEST
}
layer {
  name: "mnist"
  type: "Data"
  top: "data"
  top: "label"
  include {
    phase: TEST
  }
  transform_param {
    scale: 0.00390625
  }
  data_param {
    source: "examples/mnist/mnist_test_lmdb"
    batch_size: 100
    backend: LMDB
  }
}
layer {
  name: "conv1"
  type: "Convolution"
  bottom: "data"
  top: "conv1"
  param {
    lr_mult: 1
  }
  param {
    lr_mult: 2
  }
  convolution_param {
    num_output: 20
    kernel_size: 5
    stride: 1
    weight_filler {
      type: "xavier"
    }
    bias_filler {
      type: "constant"
    }
  }
}
layer {
  name: "pool1"
  type: "Pooling"
  bottom: "conv1"
  top: "pool1"
  pooling_param {
    pool: MAX
    kernel_size: 2
    stride: 2
  }
}
layer {
  name: "conv2"
  type: "Convolution"
  bottom: "pool1"
  top: "conv2"
  param {
    lr_mult: 1
  }
  param {
    lr_mult: 2
  }
  convolution_param {
    num_output: 50
    kernel_size: 5
    stride: 1
    weight_filler {
      type: "xavier"
    }
    bias_filler {
      type: "constant"
    }
  }
}
layer {
  name: "pool2"
  type: "Pooling"
  bottom: "conv2"
  top: "pool2"
  pooling_param {
    pool: MAX
    kernel_size: 2
    stride: 2
  }
}
layer {
  name: "ip1"
  type: "InnerProduct"
  bottom: "pool2"
  top: "ip1"
  param {
    lr_mult: 1
  }
  param {
    lr_mult: 2
  }
  inner_product_param {
    num_output: 500
    weight_filler {
      type: "xavier"
    }
    bias_filler {
      type: "constant"
    }
  }
}
layer {
  name: "relu1"
  type: "ReLU"
  bottom: "ip1"
  top: "ip1"
}
layer {
  name: "ip2"
  type: "InnerProduct"
  bottom: "ip1"
  top: "ip2"
  param {
    lr_mult: 1
  }
  param {
    lr_mult: 2
  }
  inner_product_param {
    num_output: 10
    weight_filler {
      type: "xavier"
    }
    bias_filler {
      type: "constant"
    }
  }
}
layer {
  name: "accuracy"
  type: "Accuracy"
  bottom: "ip2"
  bottom: "label"
  top: "accuracy"
  include {
    phase: TEST
  }
}
layer {
  name: "loss"
  type: "SoftmaxWithLoss"
  bottom: "ip2"
  bottom: "label"
  top: "loss"
}
I0430 20:08:44.161387 17019 layer_factory.hpp:77] Creating layer mnist
I0430 20:08:44.161568 17019 net.cpp:91] Creating Layer mnist
I0430 20:08:44.161587 17019 net.cpp:399] mnist -> data
I0430 20:08:44.161604 17019 net.cpp:399] mnist -> label
I0430 20:08:44.163723 17031 db_lmdb.cpp:35] Opened lmdb examples/mnist/mnist_test_lmdb
I0430 20:08:44.163982 17019 data_layer.cpp:41] output data size: 100,1,28,28
I0430 20:08:44.165989 17019 net.cpp:141] Setting up mnist
I0430 20:08:44.166009 17019 net.cpp:148] Top shape: 100 1 28 28 (78400)
I0430 20:08:44.166016 17019 net.cpp:148] Top shape: 100 (100)
I0430 20:08:44.166021 17019 net.cpp:156] Memory required for data: 314000
I0430 20:08:44.166028 17019 layer_factory.hpp:77] Creating layer label_mnist_1_split
I0430 20:08:44.166098 17019 net.cpp:91] Creating Layer label_mnist_1_split
I0430 20:08:44.166110 17019 net.cpp:425] label_mnist_1_split <- label
I0430 20:08:44.166118 17019 net.cpp:399] label_mnist_1_split -> label_mnist_1_split_0
I0430 20:08:44.166131 17019 net.cpp:399] label_mnist_1_split -> label_mnist_1_split_1
I0430 20:08:44.166254 17019 net.cpp:141] Setting up label_mnist_1_split
I0430 20:08:44.166268 17019 net.cpp:148] Top shape: 100 (100)
I0430 20:08:44.166275 17019 net.cpp:148] Top shape: 100 (100)
I0430 20:08:44.166278 17019 net.cpp:156] Memory required for data: 314800
I0430 20:08:44.166283 17019 layer_factory.hpp:77] Creating layer conv1
I0430 20:08:44.166301 17019 net.cpp:91] Creating Layer conv1
I0430 20:08:44.166306 17019 net.cpp:425] conv1 <- data
I0430 20:08:44.166318 17019 net.cpp:399] conv1 -> conv1
I0430 20:08:44.168297 17019 net.cpp:141] Setting up conv1
I0430 20:08:44.168344 17019 net.cpp:148] Top shape: 100 20 24 24 (1152000)
I0430 20:08:44.168351 17019 net.cpp:156] Memory required for data: 4922800
I0430 20:08:44.168366 17019 layer_factory.hpp:77] Creating layer pool1
I0430 20:08:44.168385 17019 net.cpp:91] Creating Layer pool1
I0430 20:08:44.168390 17019 net.cpp:425] pool1 <- conv1
I0430 20:08:44.168398 17019 net.cpp:399] pool1 -> pool1
I0430 20:08:44.168462 17019 net.cpp:141] Setting up pool1
I0430 20:08:44.168476 17019 net.cpp:148] Top shape: 100 20 12 12 (288000)
I0430 20:08:44.168481 17019 net.cpp:156] Memory required for data: 6074800
I0430 20:08:44.168486 17019 layer_factory.hpp:77] Creating layer conv2
I0430 20:08:44.168503 17019 net.cpp:91] Creating Layer conv2
I0430 20:08:44.168511 17019 net.cpp:425] conv2 <- pool1
I0430 20:08:44.168524 17019 net.cpp:399] conv2 -> conv2
I0430 20:08:44.170419 17019 net.cpp:141] Setting up conv2
I0430 20:08:44.170440 17019 net.cpp:148] Top shape: 100 50 8 8 (320000)
I0430 20:08:44.170445 17019 net.cpp:156] Memory required for data: 7354800
I0430 20:08:44.170460 17019 layer_factory.hpp:77] Creating layer pool2
I0430 20:08:44.170474 17019 net.cpp:91] Creating Layer pool2
I0430 20:08:44.170483 17019 net.cpp:425] pool2 <- conv2
I0430 20:08:44.170502 17019 net.cpp:399] pool2 -> pool2
I0430 20:08:44.170565 17019 net.cpp:141] Setting up pool2
I0430 20:08:44.170579 17019 net.cpp:148] Top shape: 100 50 4 4 (80000)
I0430 20:08:44.170583 17019 net.cpp:156] Memory required for data: 7674800
I0430 20:08:44.170589 17019 layer_factory.hpp:77] Creating layer ip1
I0430 20:08:44.170603 17019 net.cpp:91] Creating Layer ip1
I0430 20:08:44.170610 17019 net.cpp:425] ip1 <- pool2
I0430 20:08:44.170622 17019 net.cpp:399] ip1 -> ip1
I0430 20:08:44.176125 17019 net.cpp:141] Setting up ip1
I0430 20:08:44.176143 17019 net.cpp:148] Top shape: 100 500 (50000)
I0430 20:08:44.176148 17019 net.cpp:156] Memory required for data: 7874800
I0430 20:08:44.176162 17019 layer_factory.hpp:77] Creating layer relu1
I0430 20:08:44.176178 17019 net.cpp:91] Creating Layer relu1
I0430 20:08:44.176184 17019 net.cpp:425] relu1 <- ip1
I0430 20:08:44.176194 17019 net.cpp:386] relu1 -> ip1 (in-place)
I0430 20:08:44.176628 17019 net.cpp:141] Setting up relu1
I0430 20:08:44.176646 17019 net.cpp:148] Top shape: 100 500 (50000)
I0430 20:08:44.176651 17019 net.cpp:156] Memory required for data: 8074800
I0430 20:08:44.176657 17019 layer_factory.hpp:77] Creating layer ip2
I0430 20:08:44.176672 17019 net.cpp:91] Creating Layer ip2
I0430 20:08:44.176681 17019 net.cpp:425] ip2 <- ip1
I0430 20:08:44.176690 17019 net.cpp:399] ip2 -> ip2
I0430 20:08:44.176905 17019 net.cpp:141] Setting up ip2
I0430 20:08:44.176920 17019 net.cpp:148] Top shape: 100 10 (1000)
I0430 20:08:44.176925 17019 net.cpp:156] Memory required for data: 8078800
I0430 20:08:44.176934 17019 layer_factory.hpp:77] Creating layer ip2_ip2_0_split
I0430 20:08:44.176945 17019 net.cpp:91] Creating Layer ip2_ip2_0_split
I0430 20:08:44.176951 17019 net.cpp:425] ip2_ip2_0_split <- ip2
I0430 20:08:44.176961 17019 net.cpp:399] ip2_ip2_0_split -> ip2_ip2_0_split_0
I0430 20:08:44.176975 17019 net.cpp:399] ip2_ip2_0_split -> ip2_ip2_0_split_1
I0430 20:08:44.177028 17019 net.cpp:141] Setting up ip2_ip2_0_split
I0430 20:08:44.177042 17019 net.cpp:148] Top shape: 100 10 (1000)
I0430 20:08:44.177047 17019 net.cpp:148] Top shape: 100 10 (1000)
I0430 20:08:44.177052 17019 net.cpp:156] Memory required for data: 8086800
I0430 20:08:44.177057 17019 layer_factory.hpp:77] Creating layer accuracy
I0430 20:08:44.177072 17019 net.cpp:91] Creating Layer accuracy
I0430 20:08:44.177079 17019 net.cpp:425] accuracy <- ip2_ip2_0_split_0
I0430 20:08:44.177086 17019 net.cpp:425] accuracy <- label_mnist_1_split_0
I0430 20:08:44.177096 17019 net.cpp:399] accuracy -> accuracy
…
