…
I0429 22:20:28.928086 15637 net.cpp:313] The NetState phase (0) differed from the phase (1) specified by a rule in layer mnist
I0429 22:20:28.928110 15637 net.cpp:313] The NetState phase (0) differed from the phase (1) specified by a rule in layer accuracy
I0429 22:20:28.928234 15637 net.cpp:49] Initializing net from parameters: 
name: "LeNet"
state {
  phase: TRAIN
}
layer {
  name: "mnist"
  type: "Data"
  top: "data"
  top: "label"
  include {
    phase: TRAIN
  }
  transform_param {
    scale: 0.00390625
  }
  data_param {
    source: "examples/mnist/mnist_train_lmdb"
    batch_size: 64
    backend: LMDB
  }
}
layer {
  name: "conv1"
  type: "Convolution"
  bottom: "data"
  top: "conv1"
  param {
    lr_mult: 1
  }
  param {
    lr_mult: 2
  }
  convolution_param {
    num_output: 20
    kernel_size: 5
    stride: 1
    weight_filler {
      type: "xavier"
    }
    bias_filler {
      type: "constant"
    }
  }
}
layer {
  name: "pool1"
  type: "Pooling"
  bottom: "conv1"
  top: "pool1"
  pooling_param {
    pool: MAX
    kernel_size: 2
    stride: 2
  }
}
layer {
  name: "conv2"
  type: "Convolution"
  bottom: "pool1"
  top: "conv2"
  param {
    lr_mult: 1
  }
  param {
    lr_mult: 2
  }
  convolution_param {
    num_output: 50
    kernel_size: 5
    stride: 1
    weight_filler {
      type: "xavier"
    }
    bias_filler {
      type: "constant"
    }
  }
}
layer {
  name: "pool2"
  type: "Pooling"
  bottom: "conv2"
  top: "pool2"
  pooling_param {
    pool: MAX
    kernel_size: 2
    stride: 2
  }
}
layer {
  name: "ip1"
  type: "InnerProduct"
  bottom: "pool2"
  top: "ip1"
  param {
    lr_mult: 1
  }
  param {
    lr_mult: 2
  }
  inner_product_param {
    num_output: 500
    weight_filler {
      type: "xavier"
    }
    bias_filler {
      type: "constant"
    }
  }
}
layer {
  name: "relu1"
  type: "ReLU"
  bottom: "ip1"
  top: "ip1"
}
layer {
  name: "ip2"
  type: "InnerProduct"
  bottom: "ip1"
  top: "ip2"
  param {
    lr_mult: 1
  }
  param {
    lr_mult: 2
  }
  inner_product_param {
    num_output: 10
    weight_filler {
      type: "xavier"
    }
    bias_filler {
      type: "constant"
    }
  }
}
layer {
  name: "loss"
  type: "SoftmaxWithLoss"
  bottom: "ip2"
  bottom: "label"
  top: "loss"
}
I0429 22:20:28.928354 15637 layer_factory.hpp:77] Creating layer mnist
I0429 22:20:28.929126 15637 net.cpp:91] Creating Layer mnist
I0429 22:20:28.929159 15637 net.cpp:399] mnist -> data
I0429 22:20:28.929328 15637 net.cpp:399] mnist -> label
I0429 22:20:28.931391 15641 db_lmdb.cpp:35] Opened lmdb examples/mnist/mnist_train_lmdb
I0429 22:20:28.946283 15637 data_layer.cpp:41] output data size: 64,1,28,28
I0429 22:20:28.948007 15637 net.cpp:141] Setting up mnist
I0429 22:20:28.948041 15637 net.cpp:148] Top shape: 64 1 28 28 (50176)
I0429 22:20:28.948050 15637 net.cpp:148] Top shape: 64 (64)
I0429 22:20:28.948055 15637 net.cpp:156] Memory required for data: 200960
I0429 22:20:28.948066 15637 layer_factory.hpp:77] Creating layer conv1
I0429 22:20:28.948103 15637 net.cpp:91] Creating Layer conv1
I0429 22:20:28.948117 15637 net.cpp:425] conv1 <- data
I0429 22:20:28.948132 15637 net.cpp:399] conv1 -> conv1
I0429 22:20:28.950814 15642 blocking_queue.cpp:50] Waiting for data
I0429 22:20:29.165129 15637 net.cpp:141] Setting up conv1
I0429 22:20:29.165176 15637 net.cpp:148] Top shape: 64 20 24 24 (737280)
I0429 22:20:29.165251 15637 net.cpp:156] Memory required for data: 3150080
I0429 22:20:29.165285 15637 layer_factory.hpp:77] Creating layer pool1
I0429 22:20:29.165314 15637 net.cpp:91] Creating Layer pool1
I0429 22:20:29.165326 15637 net.cpp:425] pool1 <- conv1
I0429 22:20:29.165336 15637 net.cpp:399] pool1 -> pool1
I0429 22:20:29.165417 15637 net.cpp:141] Setting up pool1
I0429 22:20:29.165431 15637 net.cpp:148] Top shape: 64 20 12 12 (184320)
I0429 22:20:29.165436 15637 net.cpp:156] Memory required for data: 3887360
I0429 22:20:29.165442 15637 layer_factory.hpp:77] Creating layer conv2
I0429 22:20:29.165462 15637 net.cpp:91] Creating Layer conv2
I0429 22:20:29.165469 15637 net.cpp:425] conv2 <- pool1
I0429 22:20:29.165478 15637 net.cpp:399] conv2 -> conv2
I0429 22:20:29.167343 15637 net.cpp:141] Setting up conv2
I0429 22:20:29.167364 15637 net.cpp:148] Top shape: 64 50 8 8 (204800)
I0429 22:20:29.167371 15637 net.cpp:156] Memory required for data: 4706560
I0429 22:20:29.167384 15637 layer_factory.hpp:77] Creating layer pool2
I0429 22:20:29.167397 15637 net.cpp:91] Creating Layer pool2
I0429 22:20:29.167407 15637 net.cpp:425] pool2 <- conv2
I0429 22:20:29.167415 15637 net.cpp:399] pool2 -> pool2
I0429 22:20:29.167470 15637 net.cpp:141] Setting up pool2
I0429 22:20:29.167484 15637 net.cpp:148] Top shape: 64 50 4 4 (51200)
I0429 22:20:29.167489 15637 net.cpp:156] Memory required for data: 4911360
I0429 22:20:29.167495 15637 layer_factory.hpp:77] Creating layer ip1
I0429 22:20:29.167506 15637 net.cpp:91] Creating Layer ip1
I0429 22:20:29.167515 15637 net.cpp:425] ip1 <- pool2
I0429 22:20:29.167522 15637 net.cpp:399] ip1 -> ip1
I0429 22:20:29.172905 15637 net.cpp:141] Setting up ip1
I0429 22:20:29.172925 15637 net.cpp:148] Top shape: 64 500 (32000)
I0429 22:20:29.172930 15637 net.cpp:156] Memory required for data: 5039360
I0429 22:20:29.172943 15637 layer_factory.hpp:77] Creating layer relu1
I0429 22:20:29.172953 15637 net.cpp:91] Creating Layer relu1
I0429 22:20:29.172960 15637 net.cpp:425] relu1 <- ip1
I0429 22:20:29.172966 15637 net.cpp:386] relu1 -> ip1 (in-place)
I0429 22:20:29.173223 15637 net.cpp:141] Setting up relu1
I0429 22:20:29.173243 15637 net.cpp:148] Top shape: 64 500 (32000)
I0429 22:20:29.173248 15637 net.cpp:156] Memory required for data: 5167360
I0429 22:20:29.173252 15637 layer_factory.hpp:77] Creating layer ip2
I0429 22:20:29.173264 15637 net.cpp:91] Creating Layer ip2
I0429 22:20:29.173269 15637 net.cpp:425] ip2 <- ip1
I0429 22:20:29.173280 15637 net.cpp:399] ip2 -> ip2
I0429 22:20:29.174352 15637 net.cpp:141] Setting up ip2
I0429 22:20:29.174374 15637 net.cpp:148] Top shape: 64 10 (640)
I0429 22:20:29.174379 15637 net.cpp:156] Memory required for data: 5169920
I0429 22:20:29.174389 15637 layer_factory.hpp:77] Creating layer loss
I0429 22:20:29.174404 15637 net.cpp:91] Creating Layer loss
I0429 22:20:29.174410 15637 net.cpp:425] loss <- ip2
I0429 22:20:29.174417 15637 net.cpp:425] loss <- label
I0429 22:20:29.174427 15637 net.cpp:399] loss -> loss
I0429 22:20:29.174450 15637 layer_factory.hpp:77] Creating layer loss
…
I0429 22:20:29.175611 15637 solver.cpp:181] Creating test net (#0) specified by net file: examples/mnist/lenet_train_test.prototxt
I0429 22:20:29.175652 15637 net.cpp:313] The NetState phase (1) differed from the phase (0) specified by a rule in layer mnist
I0429 22:20:29.175793 15637 net.cpp:49] Initializing net from parameters: 
name: "LeNet"
state {
  phase: TEST
}
layer {
  name: "mnist"
  type: "Data"
  top: "data"
  top: "label"
  include {
    phase: TEST
  }
  transform_param {
    scale: 0.00390625
  }
  data_param {
    source: "examples/mnist/mnist_test_lmdb"
    batch_size: 100
    backend: LMDB
  }
}
layer {
  name: "conv1"
  type: "Convolution"
  bottom: "data"
  top: "conv1"
  param {
    lr_mult: 1
  }
  param {
    lr_mult: 2
  }
  convolution_param {
    num_output: 20
    kernel_size: 5
    stride: 1
    weight_filler {
      type: "xavier"
    }
    bias_filler {
      type: "constant"
    }
  }
}
layer {
  name: "pool1"
  type: "Pooling"
  bottom: "conv1"
  top: "pool1"
  pooling_param {
    pool: MAX
    kernel_size: 2
    stride: 2
  }
}
layer {
  name: "conv2"
  type: "Convolution"
  bottom: "pool1"
  top: "conv2"
  param {
    lr_mult: 1
  }
  param {
    lr_mult: 2
  }
  convolution_param {
    num_output: 50
    kernel_size: 5
    stride: 1
    weight_filler {
      type: "xavier"
    }
    bias_filler {
      type: "constant"
    }
  }
}
layer {
  name: "pool2"
  type: "Pooling"
  bottom: "conv2"
  top: "pool2"
  pooling_param {
    pool: MAX
    kernel_size: 2
    stride: 2
  }
}
layer {
  name: "ip1"
  type: "InnerProduct"
  bottom: "pool2"
  top: "ip1"
  param {
    lr_mult: 1
  }
  param {
    lr_mult: 2
  }
  inner_product_param {
    num_output: 500
    weight_filler {
      type: "xavier"
    }
    bias_filler {
      type: "constant"
    }
  }
}
layer {
  name: "relu1"
  type: "ReLU"
  bottom: "ip1"
  top: "ip1"
}
layer {
  name: "ip2"
  type: "InnerProduct"
  bottom: "ip1"
  top: "ip2"
  param {
    lr_mult: 1
  }
  param {
    lr_mult: 2
  }
  inner_product_param {
    num_output: 10
    weight_filler {
      type: "xavier"
    }
    bias_filler {
      type: "constant"
    }
  }
}
layer {
  name: "accuracy"
  type: "Accuracy"
  bottom: "ip2"
  bottom: "label"
  top: "accuracy"
  include {
    phase: TEST
  }
}
layer {
  name: "loss"
  type: "SoftmaxWithLoss"
  bottom: "ip2"
  bottom: "label"
  top: "loss"
}
I0429 22:20:29.175904 15637 layer_factory.hpp:77] Creating layer mnist
I0429 22:20:29.176080 15637 net.cpp:91] Creating Layer mnist
I0429 22:20:29.176097 15637 net.cpp:399] mnist -> data
I0429 22:20:29.176113 15637 net.cpp:399] mnist -> label
I0429 22:20:29.178334 15643 db_lmdb.cpp:35] Opened lmdb examples/mnist/mnist_test_lmdb
I0429 22:20:29.178598 15637 data_layer.cpp:41] output data size: 100,1,28,28
I0429 22:20:29.180512 15637 net.cpp:141] Setting up mnist
I0429 22:20:29.180533 15637 net.cpp:148] Top shape: 100 1 28 28 (78400)
I0429 22:20:29.180541 15637 net.cpp:148] Top shape: 100 (100)
I0429 22:20:29.180546 15637 net.cpp:156] Memory required for data: 314000
I0429 22:20:29.180552 15637 layer_factory.hpp:77] Creating layer label_mnist_1_split
I0429 22:20:29.180570 15637 net.cpp:91] Creating Layer label_mnist_1_split
I0429 22:20:29.180577 15637 net.cpp:425] label_mnist_1_split <- label
I0429 22:20:29.180584 15637 net.cpp:399] label_mnist_1_split -> label_mnist_1_split_0
I0429 22:20:29.180596 15637 net.cpp:399] label_mnist_1_split -> label_mnist_1_split_1
I0429 22:20:29.180804 15637 net.cpp:141] Setting up label_mnist_1_split
I0429 22:20:29.180819 15637 net.cpp:148] Top shape: 100 (100)
I0429 22:20:29.180826 15637 net.cpp:148] Top shape: 100 (100)
I0429 22:20:29.180830 15637 net.cpp:156] Memory required for data: 314800
I0429 22:20:29.180835 15637 layer_factory.hpp:77] Creating layer conv1
I0429 22:20:29.180852 15637 net.cpp:91] Creating Layer conv1
I0429 22:20:29.180861 15637 net.cpp:425] conv1 <- data
I0429 22:20:29.180873 15637 net.cpp:399] conv1 -> conv1
I0429 22:20:29.182708 15637 net.cpp:141] Setting up conv1
I0429 22:20:29.182760 15637 net.cpp:148] Top shape: 100 20 24 24 (1152000)
I0429 22:20:29.182765 15637 net.cpp:156] Memory required for data: 4922800
I0429 22:20:29.182780 15637 layer_factory.hpp:77] Creating layer pool1
I0429 22:20:29.182797 15637 net.cpp:91] Creating Layer pool1
I0429 22:20:29.182803 15637 net.cpp:425] pool1 <- conv1
I0429 22:20:29.182813 15637 net.cpp:399] pool1 -> pool1
I0429 22:20:29.182888 15637 net.cpp:141] Setting up pool1
I0429 22:20:29.182903 15637 net.cpp:148] Top shape: 100 20 12 12 (288000)
I0429 22:20:29.182906 15637 net.cpp:156] Memory required for data: 6074800
I0429 22:20:29.182911 15637 layer_factory.hpp:77] Creating layer conv2
I0429 22:20:29.182929 15637 net.cpp:91] Creating Layer conv2
I0429 22:20:29.182936 15637 net.cpp:425] conv2 <- pool1
I0429 22:20:29.182950 15637 net.cpp:399] conv2 -> conv2
I0429 22:20:29.184896 15637 net.cpp:141] Setting up conv2
I0429 22:20:29.184921 15637 net.cpp:148] Top shape: 100 50 8 8 (320000)
I0429 22:20:29.184926 15637 net.cpp:156] Memory required for data: 7354800
I0429 22:20:29.184942 15637 layer_factory.hpp:77] Creating layer pool2
I0429 22:20:29.184957 15637 net.cpp:91] Creating Layer pool2
I0429 22:20:29.184963 15637 net.cpp:425] pool2 <- conv2
I0429 22:20:29.184973 15637 net.cpp:399] pool2 -> pool2
I0429 22:20:29.185046 15637 net.cpp:141] Setting up pool2
I0429 22:20:29.185062 15637 net.cpp:148] Top shape: 100 50 4 4 (80000)
I0429 22:20:29.185067 15637 net.cpp:156] Memory required for data: 7674800
I0429 22:20:29.185072 15637 layer_factory.hpp:77] Creating layer ip1
I0429 22:20:29.185083 15637 net.cpp:91] Creating Layer ip1
I0429 22:20:29.185092 15637 net.cpp:425] ip1 <- pool2
I0429 22:20:29.185106 15637 net.cpp:399] ip1 -> ip1
I0429 22:20:29.190490 15637 net.cpp:141] Setting up ip1
I0429 22:20:29.190510 15637 net.cpp:148] Top shape: 100 500 (50000)
I0429 22:20:29.190515 15637 net.cpp:156] Memory required for data: 7874800
I0429 22:20:29.190527 15637 layer_factory.hpp:77] Creating layer relu1
I0429 22:20:29.190536 15637 net.cpp:91] Creating Layer relu1
I0429 22:20:29.190541 15637 net.cpp:425] relu1 <- ip1
I0429 22:20:29.190552 15637 net.cpp:386] relu1 -> ip1 (in-place)
I0429 22:20:29.190979 15637 net.cpp:141] Setting up relu1
I0429 22:20:29.190995 15637 net.cpp:148] Top shape: 100 500 (50000)
I0429 22:20:29.191000 15637 net.cpp:156] Memory required for data: 8074800
I0429 22:20:29.191006 15637 layer_factory.hpp:77] Creating layer ip2
I0429 22:20:29.191021 15637 net.cpp:91] Creating Layer ip2
I0429 22:20:29.191026 15637 net.cpp:425] ip2 <- ip1
I0429 22:20:29.191035 15637 net.cpp:399] ip2 -> ip2
I0429 22:20:29.191244 15637 net.cpp:141] Setting up ip2
I0429 22:20:29.191259 15637 net.cpp:148] Top shape: 100 10 (1000)
I0429 22:20:29.191263 15637 net.cpp:156] Memory required for data: 8078800
I0429 22:20:29.191272 15637 layer_factory.hpp:77] Creating layer ip2_ip2_0_split
I0429 22:20:29.191294 15637 net.cpp:91] Creating Layer ip2_ip2_0_split
I0429 22:20:29.191303 15637 net.cpp:425] ip2_ip2_0_split <- ip2
I0429 22:20:29.191313 15637 net.cpp:399] ip2_ip2_0_split -> ip2_ip2_0_split_0
I0429 22:20:29.191321 15637 net.cpp:399] ip2_ip2_0_split -> ip2_ip2_0_split_1
I0429 22:20:29.191380 15637 net.cpp:141] Setting up ip2_ip2_0_split
I0429 22:20:29.191392 15637 net.cpp:148] Top shape: 100 10 (1000)
I0429 22:20:29.191398 15637 net.cpp:148] Top shape: 100 10 (1000)
I0429 22:20:29.191402 15637 net.cpp:156] Memory required for data: 8086800
I0429 22:20:29.191406 15637 layer_factory.hpp:77] Creating layer accuracy
I0429 22:20:29.191419 15637 net.cpp:91] Creating Layer accuracy
I0429 22:20:29.191427 15637 net.cpp:425] accuracy <- ip2_ip2_0_split_0
I0429 22:20:29.191433 15637 net.cpp:425] accuracy <- label_mnist_1_split_0
I0429 22:20:29.191444 15637 net.cpp:399] accuracy -> accuracy
…
