…
I0429 22:25:57.432657 15863 net.cpp:313] The NetState phase (0) differed from the phase (1) specified by a rule in layer mnist
I0429 22:25:57.432692 15863 net.cpp:313] The NetState phase (0) differed from the phase (1) specified by a rule in layer accuracy
I0429 22:25:57.432833 15863 net.cpp:49] Initializing net from parameters: 
name: "LeNet"
state {
  phase: TRAIN
}
layer {
  name: "mnist"
  type: "Data"
  top: "data"
  top: "label"
  include {
    phase: TRAIN
  }
  transform_param {
    scale: 0.00390625
  }
  data_param {
    source: "examples/mnist/mnist_train_lmdb"
    batch_size: 64
    backend: LMDB
  }
}
layer {
  name: "conv1"
  type: "Convolution"
  bottom: "data"
  top: "conv1"
  param {
    lr_mult: 1
  }
  param {
    lr_mult: 2
  }
  convolution_param {
    num_output: 20
    kernel_size: 5
    stride: 1
    weight_filler {
      type: "xavier"
    }
    bias_filler {
      type: "constant"
    }
  }
}
layer {
  name: "pool1"
  type: "Pooling"
  bottom: "conv1"
  top: "pool1"
  pooling_param {
    pool: MAX
    kernel_size: 2
    stride: 2
  }
}
layer {
  name: "conv2"
  type: "Convolution"
  bottom: "pool1"
  top: "conv2"
  param {
    lr_mult: 1
  }
  param {
    lr_mult: 2
  }
  convolution_param {
    num_output: 50
    kernel_size: 5
    stride: 1
    weight_filler {
      type: "xavier"
    }
    bias_filler {
      type: "constant"
    }
  }
}
layer {
  name: "pool2"
  type: "Pooling"
  bottom: "conv2"
  top: "pool2"
  pooling_param {
    pool: MAX
    kernel_size: 2
    stride: 2
  }
}
layer {
  name: "ip1"
  type: "InnerProduct"
  bottom: "pool2"
  top: "ip1"
  param {
    lr_mult: 1
  }
  param {
    lr_mult: 2
  }
  inner_product_param {
    num_output: 500
    weight_filler {
      type: "xavier"
    }
    bias_filler {
      type: "constant"
    }
  }
}
layer {
  name: "relu1"
  type: "ReLU"
  bottom: "ip1"
  top: "ip1"
}
layer {
  name: "ip2"
  type: "InnerProduct"
  bottom: "ip1"
  top: "ip2"
  param {
    lr_mult: 1
  }
  param {
    lr_mult: 2
  }
  inner_product_param {
    num_output: 10
    weight_filler {
      type: "xavier"
    }
    bias_filler {
      type: "constant"
    }
  }
}
layer {
  name: "loss"
  type: "SoftmaxWithLoss"
  bottom: "ip2"
  bottom: "label"
  top: "loss"
}
I0429 22:25:57.432978 15863 layer_factory.hpp:77] Creating layer mnist
I0429 22:25:57.434039 15863 net.cpp:91] Creating Layer mnist
I0429 22:25:57.434130 15863 net.cpp:399] mnist -> data
I0429 22:25:57.434201 15863 net.cpp:399] mnist -> label
I0429 22:25:57.436591 15867 db_lmdb.cpp:35] Opened lmdb examples/mnist/mnist_train_lmdb
I0429 22:25:57.450925 15863 data_layer.cpp:41] output data size: 64,1,28,28
I0429 22:25:57.452680 15863 net.cpp:141] Setting up mnist
I0429 22:25:57.452757 15863 net.cpp:148] Top shape: 64 1 28 28 (50176)
I0429 22:25:57.452780 15863 net.cpp:148] Top shape: 64 (64)
I0429 22:25:57.452790 15863 net.cpp:156] Memory required for data: 200960
I0429 22:25:57.452810 15863 layer_factory.hpp:77] Creating layer conv1
I0429 22:25:57.452860 15863 net.cpp:91] Creating Layer conv1
I0429 22:25:57.452877 15863 net.cpp:425] conv1 <- data
I0429 22:25:57.452903 15863 net.cpp:399] conv1 -> conv1
I0429 22:25:57.455296 15868 blocking_queue.cpp:50] Waiting for data
I0429 22:25:57.662533 15863 net.cpp:141] Setting up conv1
I0429 22:25:57.662582 15863 net.cpp:148] Top shape: 64 20 24 24 (737280)
I0429 22:25:57.662593 15863 net.cpp:156] Memory required for data: 3150080
I0429 22:25:57.662636 15863 layer_factory.hpp:77] Creating layer pool1
I0429 22:25:57.662740 15863 net.cpp:91] Creating Layer pool1
I0429 22:25:57.662756 15863 net.cpp:425] pool1 <- conv1
I0429 22:25:57.662775 15863 net.cpp:399] pool1 -> pool1
I0429 22:25:57.662879 15863 net.cpp:141] Setting up pool1
I0429 22:25:57.662900 15863 net.cpp:148] Top shape: 64 20 12 12 (184320)
I0429 22:25:57.662910 15863 net.cpp:156] Memory required for data: 3887360
I0429 22:25:57.662921 15863 layer_factory.hpp:77] Creating layer conv2
I0429 22:25:57.662950 15863 net.cpp:91] Creating Layer conv2
I0429 22:25:57.662961 15863 net.cpp:425] conv2 <- pool1
I0429 22:25:57.662977 15863 net.cpp:399] conv2 -> conv2
I0429 22:25:57.664929 15863 net.cpp:141] Setting up conv2
I0429 22:25:57.664955 15863 net.cpp:148] Top shape: 64 50 8 8 (204800)
I0429 22:25:57.664966 15863 net.cpp:156] Memory required for data: 4706560
I0429 22:25:57.664988 15863 layer_factory.hpp:77] Creating layer pool2
I0429 22:25:57.665002 15863 net.cpp:91] Creating Layer pool2
I0429 22:25:57.665011 15863 net.cpp:425] pool2 <- conv2
I0429 22:25:57.665024 15863 net.cpp:399] pool2 -> pool2
I0429 22:25:57.665096 15863 net.cpp:141] Setting up pool2
I0429 22:25:57.665113 15863 net.cpp:148] Top shape: 64 50 4 4 (51200)
I0429 22:25:57.665122 15863 net.cpp:156] Memory required for data: 4911360
I0429 22:25:57.665133 15863 layer_factory.hpp:77] Creating layer ip1
I0429 22:25:57.665150 15863 net.cpp:91] Creating Layer ip1
I0429 22:25:57.665160 15863 net.cpp:425] ip1 <- pool2
I0429 22:25:57.665175 15863 net.cpp:399] ip1 -> ip1
I0429 22:25:57.671010 15863 net.cpp:141] Setting up ip1
I0429 22:25:57.671036 15863 net.cpp:148] Top shape: 64 500 (32000)
I0429 22:25:57.671046 15863 net.cpp:156] Memory required for data: 5039360
I0429 22:25:57.671066 15863 layer_factory.hpp:77] Creating layer relu1
I0429 22:25:57.671079 15863 net.cpp:91] Creating Layer relu1
I0429 22:25:57.671088 15863 net.cpp:425] relu1 <- ip1
I0429 22:25:57.671102 15863 net.cpp:386] relu1 -> ip1 (in-place)
I0429 22:25:57.671411 15863 net.cpp:141] Setting up relu1
I0429 22:25:57.671432 15863 net.cpp:148] Top shape: 64 500 (32000)
I0429 22:25:57.671442 15863 net.cpp:156] Memory required for data: 5167360
I0429 22:25:57.671452 15863 layer_factory.hpp:77] Creating layer ip2
I0429 22:25:57.671469 15863 net.cpp:91] Creating Layer ip2
I0429 22:25:57.671481 15863 net.cpp:425] ip2 <- ip1
I0429 22:25:57.671497 15863 net.cpp:399] ip2 -> ip2
I0429 22:25:57.672602 15863 net.cpp:141] Setting up ip2
I0429 22:25:57.672624 15863 net.cpp:148] Top shape: 64 10 (640)
I0429 22:25:57.672634 15863 net.cpp:156] Memory required for data: 5169920
I0429 22:25:57.672652 15863 layer_factory.hpp:77] Creating layer loss
I0429 22:25:57.672672 15863 net.cpp:91] Creating Layer loss
I0429 22:25:57.672683 15863 net.cpp:425] loss <- ip2
I0429 22:25:57.672695 15863 net.cpp:425] loss <- label
I0429 22:25:57.672713 15863 net.cpp:399] loss -> loss
I0429 22:25:57.672750 15863 layer_factory.hpp:77] Creating layer loss
…
I0429 22:25:57.673979 15863 solver.cpp:181] Creating test net (#0) specified by net file: examples/mnist/lenet_train_test.prototxt
I0429 22:25:57.674068 15863 net.cpp:313] The NetState phase (1) differed from the phase (0) specified by a rule in layer mnist
I0429 22:25:57.674223 15863 net.cpp:49] Initializing net from parameters: 
name: "LeNet"
state {
  phase: TEST
}
layer {
  name: "mnist"
  type: "Data"
  top: "data"
  top: "label"
  include {
    phase: TEST
  }
  transform_param {
    scale: 0.00390625
  }
  data_param {
    source: "examples/mnist/mnist_test_lmdb"
    batch_size: 100
    backend: LMDB
  }
}
layer {
  name: "conv1"
  type: "Convolution"
  bottom: "data"
  top: "conv1"
  param {
    lr_mult: 1
  }
  param {
    lr_mult: 2
  }
  convolution_param {
    num_output: 20
    kernel_size: 5
    stride: 1
    weight_filler {
      type: "xavier"
    }
    bias_filler {
      type: "constant"
    }
  }
}
layer {
  name: "pool1"
  type: "Pooling"
  bottom: "conv1"
  top: "pool1"
  pooling_param {
    pool: MAX
    kernel_size: 2
    stride: 2
  }
}
layer {
  name: "conv2"
  type: "Convolution"
  bottom: "pool1"
  top: "conv2"
  param {
    lr_mult: 1
  }
  param {
    lr_mult: 2
  }
  convolution_param {
    num_output: 50
    kernel_size: 5
    stride: 1
    weight_filler {
      type: "xavier"
    }
    bias_filler {
      type: "constant"
    }
  }
}
layer {
  name: "pool2"
  type: "Pooling"
  bottom: "conv2"
  top: "pool2"
  pooling_param {
    pool: MAX
    kernel_size: 2
    stride: 2
  }
}
layer {
  name: "ip1"
  type: "InnerProduct"
  bottom: "pool2"
  top: "ip1"
  param {
    lr_mult: 1
  }
  param {
    lr_mult: 2
  }
  inner_product_param {
    num_output: 500
    weight_filler {
      type: "xavier"
    }
    bias_filler {
      type: "constant"
    }
  }
}
layer {
  name: "relu1"
  type: "ReLU"
  bottom: "ip1"
  top: "ip1"
}
layer {
  name: "ip2"
  type: "InnerProduct"
  bottom: "ip1"
  top: "ip2"
  param {
    lr_mult: 1
  }
  param {
    lr_mult: 2
  }
  inner_product_param {
    num_output: 10
    weight_filler {
      type: "xavier"
    }
    bias_filler {
      type: "constant"
    }
  }
}
layer {
  name: "accuracy"
  type: "Accuracy"
  bottom: "ip2"
  bottom: "label"
  top: "accuracy"
  include {
    phase: TEST
  }
}
layer {
  name: "loss"
  type: "SoftmaxWithLoss"
  bottom: "ip2"
  bottom: "label"
  top: "loss"
}
I0429 22:25:57.674387 15863 layer_factory.hpp:77] Creating layer mnist
I0429 22:25:57.674603 15863 net.cpp:91] Creating Layer mnist
I0429 22:25:57.674623 15863 net.cpp:399] mnist -> data
I0429 22:25:57.674644 15863 net.cpp:399] mnist -> label
I0429 22:25:57.676903 15869 db_lmdb.cpp:35] Opened lmdb examples/mnist/mnist_test_lmdb
I0429 22:25:57.677125 15863 data_layer.cpp:41] output data size: 100,1,28,28
I0429 22:25:57.679088 15863 net.cpp:141] Setting up mnist
I0429 22:25:57.679113 15863 net.cpp:148] Top shape: 100 1 28 28 (78400)
I0429 22:25:57.679129 15863 net.cpp:148] Top shape: 100 (100)
I0429 22:25:57.679139 15863 net.cpp:156] Memory required for data: 314000
I0429 22:25:57.679150 15863 layer_factory.hpp:77] Creating layer label_mnist_1_split
I0429 22:25:57.679174 15863 net.cpp:91] Creating Layer label_mnist_1_split
I0429 22:25:57.679186 15863 net.cpp:425] label_mnist_1_split <- label
I0429 22:25:57.679203 15863 net.cpp:399] label_mnist_1_split -> label_mnist_1_split_0
I0429 22:25:57.679225 15863 net.cpp:399] label_mnist_1_split -> label_mnist_1_split_1
I0429 22:25:57.679359 15863 net.cpp:141] Setting up label_mnist_1_split
I0429 22:25:57.679381 15863 net.cpp:148] Top shape: 100 (100)
I0429 22:25:57.679395 15863 net.cpp:148] Top shape: 100 (100)
I0429 22:25:57.679405 15863 net.cpp:156] Memory required for data: 314800
I0429 22:25:57.679415 15863 layer_factory.hpp:77] Creating layer conv1
I0429 22:25:57.679440 15863 net.cpp:91] Creating Layer conv1
I0429 22:25:57.679452 15863 net.cpp:425] conv1 <- data
I0429 22:25:57.679471 15863 net.cpp:399] conv1 -> conv1
I0429 22:25:57.681216 15863 net.cpp:141] Setting up conv1
I0429 22:25:57.681241 15863 net.cpp:148] Top shape: 100 20 24 24 (1152000)
I0429 22:25:57.681253 15863 net.cpp:156] Memory required for data: 4922800
I0429 22:25:57.681313 15863 layer_factory.hpp:77] Creating layer pool1
I0429 22:25:57.681349 15863 net.cpp:91] Creating Layer pool1
I0429 22:25:57.681360 15863 net.cpp:425] pool1 <- conv1
I0429 22:25:57.681377 15863 net.cpp:399] pool1 -> pool1
I0429 22:25:57.681540 15863 net.cpp:141] Setting up pool1
I0429 22:25:57.681563 15863 net.cpp:148] Top shape: 100 20 12 12 (288000)
I0429 22:25:57.681576 15863 net.cpp:156] Memory required for data: 6074800
I0429 22:25:57.681586 15863 layer_factory.hpp:77] Creating layer conv2
I0429 22:25:57.681614 15863 net.cpp:91] Creating Layer conv2
I0429 22:25:57.681627 15863 net.cpp:425] conv2 <- pool1
I0429 22:25:57.681648 15863 net.cpp:399] conv2 -> conv2
I0429 22:25:57.683516 15863 net.cpp:141] Setting up conv2
I0429 22:25:57.683542 15863 net.cpp:148] Top shape: 100 50 8 8 (320000)
I0429 22:25:57.683558 15863 net.cpp:156] Memory required for data: 7354800
I0429 22:25:57.683583 15863 layer_factory.hpp:77] Creating layer pool2
I0429 22:25:57.683609 15863 net.cpp:91] Creating Layer pool2
I0429 22:25:57.683625 15863 net.cpp:425] pool2 <- conv2
I0429 22:25:57.683642 15863 net.cpp:399] pool2 -> pool2
I0429 22:25:57.683737 15863 net.cpp:141] Setting up pool2
I0429 22:25:57.683756 15863 net.cpp:148] Top shape: 100 50 4 4 (80000)
I0429 22:25:57.683764 15863 net.cpp:156] Memory required for data: 7674800
I0429 22:25:57.683774 15863 layer_factory.hpp:77] Creating layer ip1
I0429 22:25:57.683792 15863 net.cpp:91] Creating Layer ip1
I0429 22:25:57.683802 15863 net.cpp:425] ip1 <- pool2
I0429 22:25:57.683825 15863 net.cpp:399] ip1 -> ip1
I0429 22:25:57.689682 15863 net.cpp:141] Setting up ip1
I0429 22:25:57.689707 15863 net.cpp:148] Top shape: 100 500 (50000)
I0429 22:25:57.689718 15863 net.cpp:156] Memory required for data: 7874800
I0429 22:25:57.689740 15863 layer_factory.hpp:77] Creating layer relu1
I0429 22:25:57.689756 15863 net.cpp:91] Creating Layer relu1
I0429 22:25:57.689767 15863 net.cpp:425] relu1 <- ip1
I0429 22:25:57.689788 15863 net.cpp:386] relu1 -> ip1 (in-place)
I0429 22:25:57.690244 15863 net.cpp:141] Setting up relu1
I0429 22:25:57.690265 15863 net.cpp:148] Top shape: 100 500 (50000)
I0429 22:25:57.690274 15863 net.cpp:156] Memory required for data: 8074800
I0429 22:25:57.690285 15863 layer_factory.hpp:77] Creating layer ip2
I0429 22:25:57.690310 15863 net.cpp:91] Creating Layer ip2
I0429 22:25:57.690321 15863 net.cpp:425] ip2 <- ip1
I0429 22:25:57.690338 15863 net.cpp:399] ip2 -> ip2
I0429 22:25:57.690582 15863 net.cpp:141] Setting up ip2
I0429 22:25:57.690603 15863 net.cpp:148] Top shape: 100 10 (1000)
I0429 22:25:57.690613 15863 net.cpp:156] Memory required for data: 8078800
I0429 22:25:57.690630 15863 layer_factory.hpp:77] Creating layer ip2_ip2_0_split
I0429 22:25:57.690654 15863 net.cpp:91] Creating Layer ip2_ip2_0_split
I0429 22:25:57.690665 15863 net.cpp:425] ip2_ip2_0_split <- ip2
I0429 22:25:57.690680 15863 net.cpp:399] ip2_ip2_0_split -> ip2_ip2_0_split_0
I0429 22:25:57.690697 15863 net.cpp:399] ip2_ip2_0_split -> ip2_ip2_0_split_1
I0429 22:25:57.690780 15863 net.cpp:141] Setting up ip2_ip2_0_split
I0429 22:25:57.690798 15863 net.cpp:148] Top shape: 100 10 (1000)
I0429 22:25:57.690811 15863 net.cpp:148] Top shape: 100 10 (1000)
I0429 22:25:57.690819 15863 net.cpp:156] Memory required for data: 8086800
I0429 22:25:57.690829 15863 layer_factory.hpp:77] Creating layer accuracy
I0429 22:25:57.690850 15863 net.cpp:91] Creating Layer accuracy
I0429 22:25:57.690860 15863 net.cpp:425] accuracy <- ip2_ip2_0_split_0
I0429 22:25:57.690873 15863 net.cpp:425] accuracy <- label_mnist_1_split_0
I0429 22:25:57.690892 15863 net.cpp:399] accuracy -> accuracy
…
